{
    "format": "graph-model",
    "generatedBy": "2.15.0",
    "convertedBy": "TensorFlow.js Converter v4.20.0",
    "signature": {
        "inputs": {
            "args_0": {
                "name": "args_0:0",
                "dtype": "DT_FLOAT",
                "tensorShape": {
                    "dim": [{ "size": "1" }, { "size": "3" }, { "size": "640" }, { "size": "640" }]
                }
            }
        },
        "outputs": {
            "identity": {
                "name": "Identity:0",
                "dtype": "DT_FLOAT",
                "tensorShape": { "dim": [{ "size": "1" }, { "size": "8400" }, { "size": "7" }] }
            },
            "identity_1": {
                "name": "Identity_1:0",
                "dtype": "DT_FLOAT",
                "tensorShape": {
                    "dim": [{ "size": "1" }, { "size": "80" }, { "size": "80" }, { "size": "67" }]
                }
            },
            "identity_2": {
                "name": "Identity_2:0",
                "dtype": "DT_FLOAT",
                "tensorShape": {
                    "dim": [{ "size": "1" }, { "size": "40" }, { "size": "40" }, { "size": "67" }]
                }
            },
            "identity_3": {
                "name": "Identity_3:0",
                "dtype": "DT_FLOAT",
                "tensorShape": {
                    "dim": [{ "size": "1" }, { "size": "20" }, { "size": "20" }, { "size": "67" }]
                }
            }
        }
    },
    "modelTopology": {
        "node": [
            {
                "name": "ConstantFolding/StatefulPartitionedCall/model/tf.math.truediv/truediv_recip",
                "op": "Const",
                "attr": {
                    "value": { "tensor": { "dtype": "DT_FLOAT", "tensorShape": {} } },
                    "dtype": { "type": "DT_FLOAT" }
                }
            },
            {
                "name": "StatefulPartitionedCall/model/tf.split_12/split/split_dim",
                "op": "Const",
                "attr": {
                    "value": { "tensor": { "dtype": "DT_INT32", "tensorShape": {} } },
                    "dtype": { "type": "DT_INT32" }
                }
            },
            {
                "name": "StatefulPartitionedCall/model/tf.reshape_9/Reshape/shape",
                "op": "Const",
                "attr": {
                    "value": {
                        "tensor": {
                            "dtype": "DT_INT32",
                            "tensorShape": { "dim": [{ "size": "4" }] }
                        }
                    },
                    "dtype": { "type": "DT_INT32" }
                }
            },
            {
                "name": "StatefulPartitionedCall/model/tf.compat.v1.transpose_11/transpose/perm",
                "op": "Const",
                "attr": {
                    "value": {
                        "tensor": {
                            "dtype": "DT_INT32",
                            "tensorShape": { "dim": [{ "size": "4" }] }
                        }
                    },
                    "dtype": { "type": "DT_INT32" }
                }
            },
            {
                "name": "StatefulPartitionedCall/model/tf.nn.softmax_1/concat",
                "op": "Const",
                "attr": {
                    "value": {
                        "tensor": {
                            "dtype": "DT_INT32",
                            "tensorShape": { "dim": [{ "size": "4" }] }
                        }
                    },
                    "dtype": { "type": "DT_INT32" }
                }
            },
            {
                "name": "StatefulPartitionedCall/model/tf.nn.softmax_1/concat_1",
                "op": "Const",
                "attr": {
                    "value": {
                        "tensor": {
                            "dtype": "DT_INT32",
                            "tensorShape": { "dim": [{ "size": "4" }] }
                        }
                    },
                    "dtype": { "type": "DT_INT32" }
                }
            },
            {
                "name": "StatefulPartitionedCall/model/tf.compat.v1.transpose_12/transpose/perm",
                "op": "Const",
                "attr": {
                    "value": {
                        "tensor": {
                            "dtype": "DT_INT32",
                            "tensorShape": { "dim": [{ "size": "4" }] }
                        }
                    },
                    "dtype": { "type": "DT_INT32" }
                }
            },
            {
                "name": "StatefulPartitionedCall/model/conv2d_80/Conv2D/ReadVariableOp",
                "op": "Const",
                "attr": {
                    "value": {
                        "tensor": {
                            "dtype": "DT_FLOAT",
                            "tensorShape": {
                                "dim": [
                                    { "size": "1" },
                                    { "size": "1" },
                                    { "size": "16" },
                                    { "size": "1" }
                                ]
                            }
                        }
                    },
                    "dtype": { "type": "DT_FLOAT" }
                }
            },
            {
                "name": "StatefulPartitionedCall/model/tf.compat.v1.transpose_13/transpose/perm",
                "op": "Const",
                "attr": {
                    "value": {
                        "tensor": {
                            "dtype": "DT_INT32",
                            "tensorShape": { "dim": [{ "size": "4" }] }
                        }
                    },
                    "dtype": { "type": "DT_INT32" }
                }
            },
            {
                "name": "StatefulPartitionedCall/model/tf.reshape_10/Reshape/shape",
                "op": "Const",
                "attr": {
                    "dtype": { "type": "DT_INT32" },
                    "value": {
                        "tensor": {
                            "dtype": "DT_INT32",
                            "tensorShape": { "dim": [{ "size": "3" }] }
                        }
                    }
                }
            },
            {
                "name": "StatefulPartitionedCall/model/tf.concat_23/concat/axis",
                "op": "Const",
                "attr": {
                    "value": { "tensor": { "dtype": "DT_INT32", "tensorShape": {} } },
                    "dtype": { "type": "DT_INT32" }
                }
            },
            {
                "name": "StatefulPartitionedCall/model/tf.compat.v1.transpose_6/transpose/perm",
                "op": "Const",
                "attr": {
                    "value": {
                        "tensor": {
                            "dtype": "DT_INT32",
                            "tensorShape": { "dim": [{ "size": "4" }] }
                        }
                    },
                    "dtype": { "type": "DT_INT32" }
                }
            },
            {
                "name": "StatefulPartitionedCall/model/tf.reshape_3/Reshape/shape",
                "op": "Const",
                "attr": {
                    "dtype": { "type": "DT_INT32" },
                    "value": {
                        "tensor": {
                            "dtype": "DT_INT32",
                            "tensorShape": { "dim": [{ "size": "3" }] }
                        }
                    }
                }
            },
            {
                "name": "StatefulPartitionedCall/model/tf.compat.v1.transpose_7/transpose/perm",
                "op": "Const",
                "attr": {
                    "value": {
                        "tensor": {
                            "dtype": "DT_INT32",
                            "tensorShape": { "dim": [{ "size": "4" }] }
                        }
                    },
                    "dtype": { "type": "DT_INT32" }
                }
            },
            {
                "name": "StatefulPartitionedCall/model/tf.reshape_4/Reshape/shape",
                "op": "Const",
                "attr": {
                    "value": {
                        "tensor": {
                            "dtype": "DT_INT32",
                            "tensorShape": { "dim": [{ "size": "3" }] }
                        }
                    },
                    "dtype": { "type": "DT_INT32" }
                }
            },
            {
                "name": "StatefulPartitionedCall/model/tf.compat.v1.transpose_8/transpose/perm",
                "op": "Const",
                "attr": {
                    "dtype": { "type": "DT_INT32" },
                    "value": {
                        "tensor": {
                            "dtype": "DT_INT32",
                            "tensorShape": { "dim": [{ "size": "4" }] }
                        }
                    }
                }
            },
            {
                "name": "StatefulPartitionedCall/model/tf.reshape_5/Reshape/shape",
                "op": "Const",
                "attr": {
                    "value": {
                        "tensor": {
                            "dtype": "DT_INT32",
                            "tensorShape": { "dim": [{ "size": "3" }] }
                        }
                    },
                    "dtype": { "type": "DT_INT32" }
                }
            },
            {
                "name": "StatefulPartitionedCall/model/tf.concat_20/concat/axis",
                "op": "Const",
                "attr": {
                    "dtype": { "type": "DT_INT32" },
                    "value": { "tensor": { "dtype": "DT_INT32", "tensorShape": {} } }
                }
            },
            {
                "name": "StatefulPartitionedCall/model/tf.split_11/Const",
                "op": "Const",
                "attr": {
                    "value": {
                        "tensor": {
                            "dtype": "DT_INT32",
                            "tensorShape": { "dim": [{ "size": "2" }] }
                        }
                    },
                    "dtype": { "type": "DT_INT32" }
                }
            },
            {
                "name": "StatefulPartitionedCall/model/tf.split_11/split/split_dim",
                "op": "Const",
                "attr": {
                    "value": { "tensor": { "dtype": "DT_INT32", "tensorShape": {} } },
                    "dtype": { "type": "DT_INT32" }
                }
            },
            {
                "name": "StatefulPartitionedCall/model/tf.concat_24/concat/axis",
                "op": "Const",
                "attr": {
                    "value": { "tensor": { "dtype": "DT_INT32", "tensorShape": {} } },
                    "dtype": { "type": "DT_INT32" }
                }
            },
            {
                "name": "StatefulPartitionedCall/model/tf.compat.v1.transpose_14/transpose/perm",
                "op": "Const",
                "attr": {
                    "value": {
                        "tensor": {
                            "dtype": "DT_INT32",
                            "tensorShape": { "dim": [{ "size": "3" }] }
                        }
                    },
                    "dtype": { "type": "DT_INT32" }
                }
            },
            {
                "name": "StatefulPartitionedCall/model/zero_padding2d_30/Pad/paddings",
                "op": "Const",
                "attr": {
                    "dtype": { "type": "DT_INT32" },
                    "value": {
                        "tensor": {
                            "dtype": "DT_INT32",
                            "tensorShape": { "dim": [{ "size": "4" }, { "size": "2" }] }
                        }
                    }
                }
            },
            {
                "name": "StatefulPartitionedCall/model/zero_padding2d_31/Pad/paddings",
                "op": "Const",
                "attr": {
                    "value": {
                        "tensor": {
                            "dtype": "DT_INT32",
                            "tensorShape": { "dim": [{ "size": "4" }, { "size": "2" }] }
                        }
                    },
                    "dtype": { "type": "DT_INT32" }
                }
            },
            {
                "name": "StatefulPartitionedCall/model/conv2d_64/Conv2D/ReadVariableOp",
                "op": "Const",
                "attr": {
                    "dtype": { "type": "DT_FLOAT" },
                    "value": {
                        "tensor": {
                            "dtype": "DT_FLOAT",
                            "tensorShape": {
                                "dim": [
                                    { "size": "1" },
                                    { "size": "1" },
                                    { "size": "64" },
                                    { "size": "64" }
                                ]
                            }
                        }
                    }
                }
            },
            {
                "name": "StatefulPartitionedCall/model/conv2d_64/BiasAdd/ReadVariableOp",
                "op": "Const",
                "attr": {
                    "value": {
                        "tensor": {
                            "dtype": "DT_FLOAT",
                            "tensorShape": { "dim": [{ "size": "64" }] }
                        }
                    },
                    "dtype": { "type": "DT_FLOAT" }
                }
            },
            {
                "name": "StatefulPartitionedCall/model/zero_padding2d_32/Pad/paddings",
                "op": "Const",
                "attr": {
                    "value": {
                        "tensor": {
                            "dtype": "DT_INT32",
                            "tensorShape": { "dim": [{ "size": "4" }, { "size": "2" }] }
                        }
                    },
                    "dtype": { "type": "DT_INT32" }
                }
            },
            {
                "name": "StatefulPartitionedCall/model/zero_padding2d_33/Pad/paddings",
                "op": "Const",
                "attr": {
                    "dtype": { "type": "DT_INT32" },
                    "value": {
                        "tensor": {
                            "dtype": "DT_INT32",
                            "tensorShape": { "dim": [{ "size": "4" }, { "size": "2" }] }
                        }
                    }
                }
            },
            {
                "name": "StatefulPartitionedCall/model/conv2d_67/Conv2D/ReadVariableOp",
                "op": "Const",
                "attr": {
                    "value": {
                        "tensor": {
                            "dtype": "DT_FLOAT",
                            "tensorShape": {
                                "dim": [
                                    { "size": "1" },
                                    { "size": "1" },
                                    { "size": "128" },
                                    { "size": "3" }
                                ]
                            }
                        }
                    },
                    "dtype": { "type": "DT_FLOAT" }
                }
            },
            {
                "name": "StatefulPartitionedCall/model/conv2d_67/BiasAdd/ReadVariableOp",
                "op": "Const",
                "attr": {
                    "value": {
                        "tensor": {
                            "dtype": "DT_FLOAT",
                            "tensorShape": { "dim": [{ "size": "3" }] }
                        }
                    },
                    "dtype": { "type": "DT_FLOAT" }
                }
            },
            {
                "name": "StatefulPartitionedCall/model/tf.concat_17/concat/axis",
                "op": "Const",
                "attr": {
                    "dtype": { "type": "DT_INT32" },
                    "value": { "tensor": { "dtype": "DT_INT32", "tensorShape": {} } }
                }
            },
            {
                "name": "StatefulPartitionedCall/model/zero_padding2d_34/Pad/paddings",
                "op": "Const",
                "attr": {
                    "value": {
                        "tensor": {
                            "dtype": "DT_INT32",
                            "tensorShape": { "dim": [{ "size": "4" }, { "size": "2" }] }
                        }
                    },
                    "dtype": { "type": "DT_INT32" }
                }
            },
            {
                "name": "StatefulPartitionedCall/model/zero_padding2d_35/Pad/paddings",
                "op": "Const",
                "attr": {
                    "value": {
                        "tensor": {
                            "dtype": "DT_INT32",
                            "tensorShape": { "dim": [{ "size": "4" }, { "size": "2" }] }
                        }
                    },
                    "dtype": { "type": "DT_INT32" }
                }
            },
            {
                "name": "StatefulPartitionedCall/model/conv2d_70/Conv2D/ReadVariableOp",
                "op": "Const",
                "attr": {
                    "value": {
                        "tensor": {
                            "dtype": "DT_FLOAT",
                            "tensorShape": {
                                "dim": [
                                    { "size": "1" },
                                    { "size": "1" },
                                    { "size": "64" },
                                    { "size": "64" }
                                ]
                            }
                        }
                    },
                    "dtype": { "type": "DT_FLOAT" }
                }
            },
            {
                "name": "StatefulPartitionedCall/model/conv2d_70/BiasAdd/ReadVariableOp",
                "op": "Const",
                "attr": {
                    "value": {
                        "tensor": {
                            "dtype": "DT_FLOAT",
                            "tensorShape": { "dim": [{ "size": "64" }] }
                        }
                    },
                    "dtype": { "type": "DT_FLOAT" }
                }
            },
            {
                "name": "StatefulPartitionedCall/model/zero_padding2d_36/Pad/paddings",
                "op": "Const",
                "attr": {
                    "value": {
                        "tensor": {
                            "dtype": "DT_INT32",
                            "tensorShape": { "dim": [{ "size": "4" }, { "size": "2" }] }
                        }
                    },
                    "dtype": { "type": "DT_INT32" }
                }
            },
            {
                "name": "StatefulPartitionedCall/model/zero_padding2d_37/Pad/paddings",
                "op": "Const",
                "attr": {
                    "value": {
                        "tensor": {
                            "dtype": "DT_INT32",
                            "tensorShape": { "dim": [{ "size": "4" }, { "size": "2" }] }
                        }
                    },
                    "dtype": { "type": "DT_INT32" }
                }
            },
            {
                "name": "StatefulPartitionedCall/model/conv2d_73/Conv2D/ReadVariableOp",
                "op": "Const",
                "attr": {
                    "value": {
                        "tensor": {
                            "dtype": "DT_FLOAT",
                            "tensorShape": {
                                "dim": [
                                    { "size": "1" },
                                    { "size": "1" },
                                    { "size": "128" },
                                    { "size": "3" }
                                ]
                            }
                        }
                    },
                    "dtype": { "type": "DT_FLOAT" }
                }
            },
            {
                "name": "StatefulPartitionedCall/model/conv2d_73/BiasAdd/ReadVariableOp",
                "op": "Const",
                "attr": {
                    "value": {
                        "tensor": {
                            "dtype": "DT_FLOAT",
                            "tensorShape": { "dim": [{ "size": "3" }] }
                        }
                    },
                    "dtype": { "type": "DT_FLOAT" }
                }
            },
            {
                "name": "StatefulPartitionedCall/model/tf.concat_18/concat/axis",
                "op": "Const",
                "attr": {
                    "value": { "tensor": { "dtype": "DT_INT32", "tensorShape": {} } },
                    "dtype": { "type": "DT_INT32" }
                }
            },
            {
                "name": "StatefulPartitionedCall/model/zero_padding2d_38/Pad/paddings",
                "op": "Const",
                "attr": {
                    "value": {
                        "tensor": {
                            "dtype": "DT_INT32",
                            "tensorShape": { "dim": [{ "size": "4" }, { "size": "2" }] }
                        }
                    },
                    "dtype": { "type": "DT_INT32" }
                }
            },
            {
                "name": "StatefulPartitionedCall/model/zero_padding2d_39/Pad/paddings",
                "op": "Const",
                "attr": {
                    "value": {
                        "tensor": {
                            "dtype": "DT_INT32",
                            "tensorShape": { "dim": [{ "size": "4" }, { "size": "2" }] }
                        }
                    },
                    "dtype": { "type": "DT_INT32" }
                }
            },
            {
                "name": "StatefulPartitionedCall/model/conv2d_76/Conv2D/ReadVariableOp",
                "op": "Const",
                "attr": {
                    "dtype": { "type": "DT_FLOAT" },
                    "value": {
                        "tensor": {
                            "dtype": "DT_FLOAT",
                            "tensorShape": {
                                "dim": [
                                    { "size": "1" },
                                    { "size": "1" },
                                    { "size": "64" },
                                    { "size": "64" }
                                ]
                            }
                        }
                    }
                }
            },
            {
                "name": "StatefulPartitionedCall/model/conv2d_76/BiasAdd/ReadVariableOp",
                "op": "Const",
                "attr": {
                    "value": {
                        "tensor": {
                            "dtype": "DT_FLOAT",
                            "tensorShape": { "dim": [{ "size": "64" }] }
                        }
                    },
                    "dtype": { "type": "DT_FLOAT" }
                }
            },
            {
                "name": "StatefulPartitionedCall/model/zero_padding2d_26/Pad/paddings",
                "op": "Const",
                "attr": {
                    "value": {
                        "tensor": {
                            "dtype": "DT_INT32",
                            "tensorShape": { "dim": [{ "size": "4" }, { "size": "2" }] }
                        }
                    },
                    "dtype": { "type": "DT_INT32" }
                }
            },
            {
                "name": "StatefulPartitionedCall/model/zero_padding2d_27/Pad/paddings",
                "op": "Const",
                "attr": {
                    "dtype": { "type": "DT_INT32" },
                    "value": {
                        "tensor": {
                            "dtype": "DT_INT32",
                            "tensorShape": { "dim": [{ "size": "4" }, { "size": "2" }] }
                        }
                    }
                }
            },
            {
                "name": "StatefulPartitionedCall/model/zero_padding2d_28/Pad/paddings",
                "op": "Const",
                "attr": {
                    "value": {
                        "tensor": {
                            "dtype": "DT_INT32",
                            "tensorShape": { "dim": [{ "size": "4" }, { "size": "2" }] }
                        }
                    },
                    "dtype": { "type": "DT_INT32" }
                }
            },
            {
                "name": "StatefulPartitionedCall/model/zero_padding2d_29/Pad/paddings",
                "op": "Const",
                "attr": {
                    "value": {
                        "tensor": {
                            "dtype": "DT_INT32",
                            "tensorShape": { "dim": [{ "size": "4" }, { "size": "2" }] }
                        }
                    },
                    "dtype": { "type": "DT_INT32" }
                }
            },
            {
                "name": "StatefulPartitionedCall/model/tf.split_9/split/split_dim",
                "op": "Const",
                "attr": {
                    "dtype": { "type": "DT_INT32" },
                    "value": { "tensor": { "dtype": "DT_INT32", "tensorShape": {} } }
                }
            },
            {
                "name": "StatefulPartitionedCall/model/tf.split_8/split/split_dim",
                "op": "Const",
                "attr": {
                    "value": { "tensor": { "dtype": "DT_INT32", "tensorShape": {} } },
                    "dtype": { "type": "DT_INT32" }
                }
            },
            {
                "name": "StatefulPartitionedCall/model/tf.split_7/split/split_dim",
                "op": "Const",
                "attr": {
                    "value": { "tensor": { "dtype": "DT_INT32", "tensorShape": {} } },
                    "dtype": { "type": "DT_INT32" }
                }
            },
            {
                "name": "StatefulPartitionedCall/model/tf.image.resize_1/resize/size",
                "op": "Const",
                "attr": {
                    "dtype": { "type": "DT_INT32" },
                    "value": {
                        "tensor": {
                            "dtype": "DT_INT32",
                            "tensorShape": { "dim": [{ "size": "2" }] }
                        }
                    }
                }
            },
            {
                "name": "StatefulPartitionedCall/model/tf.concat_10/concat/axis",
                "op": "Const",
                "attr": {
                    "value": { "tensor": { "dtype": "DT_INT32", "tensorShape": {} } },
                    "dtype": { "type": "DT_INT32" }
                }
            },
            {
                "name": "StatefulPartitionedCall/model/zero_padding2d_20/Pad/paddings",
                "op": "Const",
                "attr": {
                    "dtype": { "type": "DT_INT32" },
                    "value": {
                        "tensor": {
                            "dtype": "DT_INT32",
                            "tensorShape": { "dim": [{ "size": "4" }, { "size": "2" }] }
                        }
                    }
                }
            },
            {
                "name": "StatefulPartitionedCall/model/zero_padding2d_21/Pad/paddings",
                "op": "Const",
                "attr": {
                    "value": {
                        "tensor": {
                            "dtype": "DT_INT32",
                            "tensorShape": { "dim": [{ "size": "4" }, { "size": "2" }] }
                        }
                    },
                    "dtype": { "type": "DT_INT32" }
                }
            },
            {
                "name": "StatefulPartitionedCall/model/tf.concat_11/concat/axis",
                "op": "Const",
                "attr": {
                    "dtype": { "type": "DT_INT32" },
                    "value": { "tensor": { "dtype": "DT_INT32", "tensorShape": {} } }
                }
            },
            {
                "name": "StatefulPartitionedCall/model/zero_padding2d_22/Pad/paddings",
                "op": "Const",
                "attr": {
                    "value": {
                        "tensor": {
                            "dtype": "DT_INT32",
                            "tensorShape": { "dim": [{ "size": "4" }, { "size": "2" }] }
                        }
                    },
                    "dtype": { "type": "DT_INT32" }
                }
            },
            {
                "name": "StatefulPartitionedCall/model/tf.split_6/split/split_dim",
                "op": "Const",
                "attr": {
                    "dtype": { "type": "DT_INT32" },
                    "value": { "tensor": { "dtype": "DT_INT32", "tensorShape": {} } }
                }
            },
            {
                "name": "StatefulPartitionedCall/model/tf.image.resize/resize/size",
                "op": "Const",
                "attr": {
                    "dtype": { "type": "DT_INT32" },
                    "value": {
                        "tensor": {
                            "dtype": "DT_INT32",
                            "tensorShape": { "dim": [{ "size": "2" }] }
                        }
                    }
                }
            },
            {
                "name": "StatefulPartitionedCall/model/tf.concat_8/concat/axis",
                "op": "Const",
                "attr": {
                    "value": { "tensor": { "dtype": "DT_INT32", "tensorShape": {} } },
                    "dtype": { "type": "DT_INT32" }
                }
            },
            {
                "name": "StatefulPartitionedCall/model/zero_padding2d_18/Pad/paddings",
                "op": "Const",
                "attr": {
                    "dtype": { "type": "DT_INT32" },
                    "value": {
                        "tensor": {
                            "dtype": "DT_INT32",
                            "tensorShape": { "dim": [{ "size": "4" }, { "size": "2" }] }
                        }
                    }
                }
            },
            {
                "name": "StatefulPartitionedCall/model/zero_padding2d_19/Pad/paddings",
                "op": "Const",
                "attr": {
                    "dtype": { "type": "DT_INT32" },
                    "value": {
                        "tensor": {
                            "dtype": "DT_INT32",
                            "tensorShape": { "dim": [{ "size": "4" }, { "size": "2" }] }
                        }
                    }
                }
            },
            {
                "name": "StatefulPartitionedCall/model/tf.concat_9/concat/axis",
                "op": "Const",
                "attr": {
                    "value": { "tensor": { "dtype": "DT_INT32", "tensorShape": {} } },
                    "dtype": { "type": "DT_INT32" }
                }
            },
            {
                "name": "StatefulPartitionedCall/model/tf.concat_12/concat/axis",
                "op": "Const",
                "attr": {
                    "value": { "tensor": { "dtype": "DT_INT32", "tensorShape": {} } },
                    "dtype": { "type": "DT_INT32" }
                }
            },
            {
                "name": "StatefulPartitionedCall/model/zero_padding2d_23/Pad/paddings",
                "op": "Const",
                "attr": {
                    "value": {
                        "tensor": {
                            "dtype": "DT_INT32",
                            "tensorShape": { "dim": [{ "size": "4" }, { "size": "2" }] }
                        }
                    },
                    "dtype": { "type": "DT_INT32" }
                }
            },
            {
                "name": "StatefulPartitionedCall/model/zero_padding2d_24/Pad/paddings",
                "op": "Const",
                "attr": {
                    "value": {
                        "tensor": {
                            "dtype": "DT_INT32",
                            "tensorShape": { "dim": [{ "size": "4" }, { "size": "2" }] }
                        }
                    },
                    "dtype": { "type": "DT_INT32" }
                }
            },
            {
                "name": "StatefulPartitionedCall/model/tf.concat_13/concat/axis",
                "op": "Const",
                "attr": {
                    "dtype": { "type": "DT_INT32" },
                    "value": { "tensor": { "dtype": "DT_INT32", "tensorShape": {} } }
                }
            },
            {
                "name": "StatefulPartitionedCall/model/zero_padding2d_25/Pad/paddings",
                "op": "Const",
                "attr": {
                    "dtype": { "type": "DT_INT32" },
                    "value": {
                        "tensor": {
                            "dtype": "DT_INT32",
                            "tensorShape": { "dim": [{ "size": "4" }, { "size": "2" }] }
                        }
                    }
                }
            },
            {
                "name": "unknown_174",
                "op": "Const",
                "attr": {
                    "value": { "tensor": { "dtype": "DT_FLOAT", "tensorShape": {} } },
                    "dtype": { "type": "DT_FLOAT" }
                }
            },
            {
                "name": "StatefulPartitionedCall/model/tf.reshape_1/Reshape/shape",
                "op": "Const",
                "attr": {
                    "dtype": { "type": "DT_INT32" },
                    "value": {
                        "tensor": {
                            "dtype": "DT_INT32",
                            "tensorShape": { "dim": [{ "size": "4" }] }
                        }
                    }
                }
            },
            {
                "name": "StatefulPartitionedCall/model/tf.compat.v1.transpose_5/transpose/perm",
                "op": "Const",
                "attr": {
                    "value": {
                        "tensor": {
                            "dtype": "DT_INT32",
                            "tensorShape": { "dim": [{ "size": "4" }] }
                        }
                    },
                    "dtype": { "type": "DT_INT32" }
                }
            },
            {
                "name": "StatefulPartitionedCall/model/zero_padding2d_13/Pad/paddings",
                "op": "Const",
                "attr": {
                    "value": {
                        "tensor": {
                            "dtype": "DT_INT32",
                            "tensorShape": { "dim": [{ "size": "4" }, { "size": "2" }] }
                        }
                    },
                    "dtype": { "type": "DT_INT32" }
                }
            },
            {
                "name": "StatefulPartitionedCall/model/zero_padding2d_14/Pad/paddings",
                "op": "Const",
                "attr": {
                    "dtype": { "type": "DT_INT32" },
                    "value": {
                        "tensor": {
                            "dtype": "DT_INT32",
                            "tensorShape": { "dim": [{ "size": "4" }, { "size": "2" }] }
                        }
                    }
                }
            },
            {
                "name": "StatefulPartitionedCall/model/zero_padding2d_15/Pad/paddings",
                "op": "Const",
                "attr": {
                    "dtype": { "type": "DT_INT32" },
                    "value": {
                        "tensor": {
                            "dtype": "DT_INT32",
                            "tensorShape": { "dim": [{ "size": "4" }, { "size": "2" }] }
                        }
                    }
                }
            },
            {
                "name": "StatefulPartitionedCall/model/zero_padding2d_16/Pad/paddings",
                "op": "Const",
                "attr": {
                    "value": {
                        "tensor": {
                            "dtype": "DT_INT32",
                            "tensorShape": { "dim": [{ "size": "4" }, { "size": "2" }] }
                        }
                    },
                    "dtype": { "type": "DT_INT32" }
                }
            },
            {
                "name": "StatefulPartitionedCall/model/tf.split_3/split/split_dim",
                "op": "Const",
                "attr": {
                    "dtype": { "type": "DT_INT32" },
                    "value": { "tensor": { "dtype": "DT_INT32", "tensorShape": {} } }
                }
            },
            {
                "name": "StatefulPartitionedCall/model/zero_padding2d_8/Pad/paddings",
                "op": "Const",
                "attr": {
                    "value": {
                        "tensor": {
                            "dtype": "DT_INT32",
                            "tensorShape": { "dim": [{ "size": "4" }, { "size": "2" }] }
                        }
                    },
                    "dtype": { "type": "DT_INT32" }
                }
            },
            {
                "name": "StatefulPartitionedCall/model/zero_padding2d_9/Pad/paddings",
                "op": "Const",
                "attr": {
                    "value": {
                        "tensor": {
                            "dtype": "DT_INT32",
                            "tensorShape": { "dim": [{ "size": "4" }, { "size": "2" }] }
                        }
                    },
                    "dtype": { "type": "DT_INT32" }
                }
            },
            {
                "name": "StatefulPartitionedCall/model/zero_padding2d_10/Pad/paddings",
                "op": "Const",
                "attr": {
                    "dtype": { "type": "DT_INT32" },
                    "value": {
                        "tensor": {
                            "dtype": "DT_INT32",
                            "tensorShape": { "dim": [{ "size": "4" }, { "size": "2" }] }
                        }
                    }
                }
            },
            {
                "name": "StatefulPartitionedCall/model/zero_padding2d_11/Pad/paddings",
                "op": "Const",
                "attr": {
                    "value": {
                        "tensor": {
                            "dtype": "DT_INT32",
                            "tensorShape": { "dim": [{ "size": "4" }, { "size": "2" }] }
                        }
                    },
                    "dtype": { "type": "DT_INT32" }
                }
            },
            {
                "name": "StatefulPartitionedCall/model/tf.split_2/split/split_dim",
                "op": "Const",
                "attr": {
                    "value": { "tensor": { "dtype": "DT_INT32", "tensorShape": {} } },
                    "dtype": { "type": "DT_INT32" }
                }
            },
            {
                "name": "StatefulPartitionedCall/model/tf.split_1/split/split_dim",
                "op": "Const",
                "attr": {
                    "dtype": { "type": "DT_INT32" },
                    "value": { "tensor": { "dtype": "DT_INT32", "tensorShape": {} } }
                }
            },
            {
                "name": "StatefulPartitionedCall/model/tf.split/split/split_dim",
                "op": "Const",
                "attr": {
                    "value": { "tensor": { "dtype": "DT_INT32", "tensorShape": {} } },
                    "dtype": { "type": "DT_INT32" }
                }
            },
            {
                "name": "StatefulPartitionedCall/model/tf.compat.v1.transpose/transpose/perm",
                "op": "Const",
                "attr": {
                    "value": {
                        "tensor": {
                            "dtype": "DT_INT32",
                            "tensorShape": { "dim": [{ "size": "4" }] }
                        }
                    },
                    "dtype": { "type": "DT_INT32" }
                }
            },
            {
                "name": "StatefulPartitionedCall/model/zero_padding2d/Pad/paddings",
                "op": "Const",
                "attr": {
                    "value": {
                        "tensor": {
                            "dtype": "DT_INT32",
                            "tensorShape": { "dim": [{ "size": "4" }, { "size": "2" }] }
                        }
                    },
                    "dtype": { "type": "DT_INT32" }
                }
            },
            {
                "name": "StatefulPartitionedCall/model/zero_padding2d_1/Pad/paddings",
                "op": "Const",
                "attr": {
                    "value": {
                        "tensor": {
                            "dtype": "DT_INT32",
                            "tensorShape": { "dim": [{ "size": "4" }, { "size": "2" }] }
                        }
                    },
                    "dtype": { "type": "DT_INT32" }
                }
            },
            {
                "name": "StatefulPartitionedCall/model/zero_padding2d_2/Pad/paddings",
                "op": "Const",
                "attr": {
                    "dtype": { "type": "DT_INT32" },
                    "value": {
                        "tensor": {
                            "dtype": "DT_INT32",
                            "tensorShape": { "dim": [{ "size": "4" }, { "size": "2" }] }
                        }
                    }
                }
            },
            {
                "name": "StatefulPartitionedCall/model/zero_padding2d_3/Pad/paddings",
                "op": "Const",
                "attr": {
                    "value": {
                        "tensor": {
                            "dtype": "DT_INT32",
                            "tensorShape": { "dim": [{ "size": "4" }, { "size": "2" }] }
                        }
                    },
                    "dtype": { "type": "DT_INT32" }
                }
            },
            {
                "name": "StatefulPartitionedCall/model/tf.concat/concat/axis",
                "op": "Const",
                "attr": {
                    "value": { "tensor": { "dtype": "DT_INT32", "tensorShape": {} } },
                    "dtype": { "type": "DT_INT32" }
                }
            },
            {
                "name": "StatefulPartitionedCall/model/zero_padding2d_4/Pad/paddings",
                "op": "Const",
                "attr": {
                    "value": {
                        "tensor": {
                            "dtype": "DT_INT32",
                            "tensorShape": { "dim": [{ "size": "4" }, { "size": "2" }] }
                        }
                    },
                    "dtype": { "type": "DT_INT32" }
                }
            },
            {
                "name": "StatefulPartitionedCall/model/zero_padding2d_5/Pad/paddings",
                "op": "Const",
                "attr": {
                    "dtype": { "type": "DT_INT32" },
                    "value": {
                        "tensor": {
                            "dtype": "DT_INT32",
                            "tensorShape": { "dim": [{ "size": "4" }, { "size": "2" }] }
                        }
                    }
                }
            },
            {
                "name": "StatefulPartitionedCall/model/zero_padding2d_6/Pad/paddings",
                "op": "Const",
                "attr": {
                    "value": {
                        "tensor": {
                            "dtype": "DT_INT32",
                            "tensorShape": { "dim": [{ "size": "4" }, { "size": "2" }] }
                        }
                    },
                    "dtype": { "type": "DT_INT32" }
                }
            },
            {
                "name": "StatefulPartitionedCall/model/tf.concat_1/concat/axis",
                "op": "Const",
                "attr": {
                    "value": { "tensor": { "dtype": "DT_INT32", "tensorShape": {} } },
                    "dtype": { "type": "DT_INT32" }
                }
            },
            {
                "name": "StatefulPartitionedCall/model/zero_padding2d_7/Pad/paddings",
                "op": "Const",
                "attr": {
                    "dtype": { "type": "DT_INT32" },
                    "value": {
                        "tensor": {
                            "dtype": "DT_INT32",
                            "tensorShape": { "dim": [{ "size": "4" }, { "size": "2" }] }
                        }
                    }
                }
            },
            {
                "name": "StatefulPartitionedCall/model/tf.concat_2/concat/axis",
                "op": "Const",
                "attr": {
                    "value": { "tensor": { "dtype": "DT_INT32", "tensorShape": {} } },
                    "dtype": { "type": "DT_INT32" }
                }
            },
            {
                "name": "StatefulPartitionedCall/model/tf.concat_3/concat/axis",
                "op": "Const",
                "attr": {
                    "dtype": { "type": "DT_INT32" },
                    "value": { "tensor": { "dtype": "DT_INT32", "tensorShape": {} } }
                }
            },
            {
                "name": "StatefulPartitionedCall/model/zero_padding2d_12/Pad/paddings",
                "op": "Const",
                "attr": {
                    "value": {
                        "tensor": {
                            "dtype": "DT_INT32",
                            "tensorShape": { "dim": [{ "size": "4" }, { "size": "2" }] }
                        }
                    },
                    "dtype": { "type": "DT_INT32" }
                }
            },
            {
                "name": "StatefulPartitionedCall/model/tf.concat_4/concat/axis",
                "op": "Const",
                "attr": {
                    "value": { "tensor": { "dtype": "DT_INT32", "tensorShape": {} } },
                    "dtype": { "type": "DT_INT32" }
                }
            },
            {
                "name": "StatefulPartitionedCall/model/tf.concat_5/concat/axis",
                "op": "Const",
                "attr": {
                    "dtype": { "type": "DT_INT32" },
                    "value": { "tensor": { "dtype": "DT_INT32", "tensorShape": {} } }
                }
            },
            {
                "name": "StatefulPartitionedCall/model/tf.compat.v1.pad/PadV2/paddings",
                "op": "Const",
                "attr": {
                    "dtype": { "type": "DT_INT32" },
                    "value": {
                        "tensor": {
                            "dtype": "DT_INT32",
                            "tensorShape": { "dim": [{ "size": "4" }, { "size": "2" }] }
                        }
                    }
                }
            },
            {
                "name": "StatefulPartitionedCall/model/tf.compat.v1.pad/PadV2/constant_values",
                "op": "Const",
                "attr": {
                    "value": { "tensor": { "dtype": "DT_FLOAT", "tensorShape": {} } },
                    "dtype": { "type": "DT_FLOAT" }
                }
            },
            {
                "name": "StatefulPartitionedCall/model/tf.compat.v1.pad_1/PadV2/paddings",
                "op": "Const",
                "attr": {
                    "value": {
                        "tensor": {
                            "dtype": "DT_INT32",
                            "tensorShape": { "dim": [{ "size": "4" }, { "size": "2" }] }
                        }
                    },
                    "dtype": { "type": "DT_INT32" }
                }
            },
            {
                "name": "StatefulPartitionedCall/model/tf.compat.v1.pad_1/PadV2/constant_values",
                "op": "Const",
                "attr": {
                    "value": { "tensor": { "dtype": "DT_FLOAT", "tensorShape": {} } },
                    "dtype": { "type": "DT_FLOAT" }
                }
            },
            {
                "name": "StatefulPartitionedCall/model/tf.compat.v1.pad_2/PadV2/paddings",
                "op": "Const",
                "attr": {
                    "dtype": { "type": "DT_INT32" },
                    "value": {
                        "tensor": {
                            "dtype": "DT_INT32",
                            "tensorShape": { "dim": [{ "size": "4" }, { "size": "2" }] }
                        }
                    }
                }
            },
            {
                "name": "StatefulPartitionedCall/model/tf.compat.v1.pad_2/PadV2/constant_values",
                "op": "Const",
                "attr": {
                    "dtype": { "type": "DT_FLOAT" },
                    "value": { "tensor": { "dtype": "DT_FLOAT", "tensorShape": {} } }
                }
            },
            {
                "name": "StatefulPartitionedCall/model/tf.concat_6/concat/axis",
                "op": "Const",
                "attr": {
                    "dtype": { "type": "DT_INT32" },
                    "value": { "tensor": { "dtype": "DT_INT32", "tensorShape": {} } }
                }
            },
            {
                "name": "StatefulPartitionedCall/model/tf.split_4/Const",
                "op": "Const",
                "attr": {
                    "value": {
                        "tensor": {
                            "dtype": "DT_INT32",
                            "tensorShape": { "dim": [{ "size": "2" }] }
                        }
                    },
                    "dtype": { "type": "DT_INT32" }
                }
            },
            {
                "name": "StatefulPartitionedCall/model/tf.split_4/split/split_dim",
                "op": "Const",
                "attr": {
                    "value": { "tensor": { "dtype": "DT_INT32", "tensorShape": {} } },
                    "dtype": { "type": "DT_INT32" }
                }
            },
            {
                "name": "StatefulPartitionedCall/model/tf.compat.v1.transpose_1/transpose/perm",
                "op": "Const",
                "attr": {
                    "value": {
                        "tensor": {
                            "dtype": "DT_INT32",
                            "tensorShape": { "dim": [{ "size": "4" }] }
                        }
                    },
                    "dtype": { "type": "DT_INT32" }
                }
            },
            {
                "name": "StatefulPartitionedCall/model/tf.reshape/Reshape/shape",
                "op": "Const",
                "attr": {
                    "dtype": { "type": "DT_INT32" },
                    "value": {
                        "tensor": {
                            "dtype": "DT_INT32",
                            "tensorShape": { "dim": [{ "size": "4" }] }
                        }
                    }
                }
            },
            {
                "name": "StatefulPartitionedCall/model/tf.split_5/Const",
                "op": "Const",
                "attr": {
                    "value": {
                        "tensor": {
                            "dtype": "DT_INT32",
                            "tensorShape": { "dim": [{ "size": "3" }] }
                        }
                    },
                    "dtype": { "type": "DT_INT32" }
                }
            },
            {
                "name": "StatefulPartitionedCall/model/tf.split_5/split/split_dim",
                "op": "Const",
                "attr": {
                    "dtype": { "type": "DT_INT32" },
                    "value": { "tensor": { "dtype": "DT_INT32", "tensorShape": {} } }
                }
            },
            {
                "name": "StatefulPartitionedCall/model/tf.reshape_2/Reshape/shape",
                "op": "Const",
                "attr": {
                    "value": {
                        "tensor": {
                            "dtype": "DT_INT32",
                            "tensorShape": { "dim": [{ "size": "4" }] }
                        }
                    },
                    "dtype": { "type": "DT_INT32" }
                }
            },
            {
                "name": "StatefulPartitionedCall/model/tf.compat.v1.transpose_4/transpose/perm",
                "op": "Const",
                "attr": {
                    "value": {
                        "tensor": {
                            "dtype": "DT_INT32",
                            "tensorShape": { "dim": [{ "size": "4" }] }
                        }
                    },
                    "dtype": { "type": "DT_INT32" }
                }
            },
            {
                "name": "StatefulPartitionedCall/model/zero_padding2d_17/Pad/paddings",
                "op": "Const",
                "attr": {
                    "value": {
                        "tensor": {
                            "dtype": "DT_INT32",
                            "tensorShape": { "dim": [{ "size": "4" }, { "size": "2" }] }
                        }
                    },
                    "dtype": { "type": "DT_INT32" }
                }
            },
            {
                "name": "StatefulPartitionedCall/model/tf.concat_7/concat/axis",
                "op": "Const",
                "attr": {
                    "dtype": { "type": "DT_INT32" },
                    "value": { "tensor": { "dtype": "DT_INT32", "tensorShape": {} } }
                }
            },
            {
                "name": "StatefulPartitionedCall/model/tf.concat_14/concat/axis",
                "op": "Const",
                "attr": {
                    "value": { "tensor": { "dtype": "DT_INT32", "tensorShape": {} } },
                    "dtype": { "type": "DT_INT32" }
                }
            },
            {
                "name": "StatefulPartitionedCall/model/tf.concat_15/concat/axis",
                "op": "Const",
                "attr": {
                    "value": { "tensor": { "dtype": "DT_INT32", "tensorShape": {} } },
                    "dtype": { "type": "DT_INT32" }
                }
            },
            {
                "name": "StatefulPartitionedCall/model/tf.concat_16/concat/axis",
                "op": "Const",
                "attr": {
                    "value": { "tensor": { "dtype": "DT_INT32", "tensorShape": {} } },
                    "dtype": { "type": "DT_INT32" }
                }
            },
            {
                "name": "StatefulPartitionedCall/model/zero_padding2d_40/Pad/paddings",
                "op": "Const",
                "attr": {
                    "dtype": { "type": "DT_INT32" },
                    "value": {
                        "tensor": {
                            "dtype": "DT_INT32",
                            "tensorShape": { "dim": [{ "size": "4" }, { "size": "2" }] }
                        }
                    }
                }
            },
            {
                "name": "StatefulPartitionedCall/model/zero_padding2d_41/Pad/paddings",
                "op": "Const",
                "attr": {
                    "value": {
                        "tensor": {
                            "dtype": "DT_INT32",
                            "tensorShape": { "dim": [{ "size": "4" }, { "size": "2" }] }
                        }
                    },
                    "dtype": { "type": "DT_INT32" }
                }
            },
            {
                "name": "StatefulPartitionedCall/model/conv2d_79/Conv2D/ReadVariableOp",
                "op": "Const",
                "attr": {
                    "value": {
                        "tensor": {
                            "dtype": "DT_FLOAT",
                            "tensorShape": {
                                "dim": [
                                    { "size": "1" },
                                    { "size": "1" },
                                    { "size": "128" },
                                    { "size": "3" }
                                ]
                            }
                        }
                    },
                    "dtype": { "type": "DT_FLOAT" }
                }
            },
            {
                "name": "StatefulPartitionedCall/model/conv2d_79/BiasAdd/ReadVariableOp",
                "op": "Const",
                "attr": {
                    "dtype": { "type": "DT_FLOAT" },
                    "value": {
                        "tensor": {
                            "dtype": "DT_FLOAT",
                            "tensorShape": { "dim": [{ "size": "3" }] }
                        }
                    }
                }
            },
            {
                "name": "StatefulPartitionedCall/model/tf.concat_19/concat/axis",
                "op": "Const",
                "attr": {
                    "value": { "tensor": { "dtype": "DT_INT32", "tensorShape": {} } },
                    "dtype": { "type": "DT_INT32" }
                }
            },
            {
                "name": "args_0",
                "op": "Placeholder",
                "attr": {
                    "dtype": { "type": "DT_FLOAT" },
                    "shape": {
                        "shape": {
                            "dim": [
                                { "size": "1" },
                                { "size": "3" },
                                { "size": "640" },
                                { "size": "640" }
                            ]
                        }
                    }
                }
            },
            {
                "name": "StatefulPartitionedCall/model/conv2d/Conv2D_weights",
                "op": "Const",
                "attr": {
                    "value": {
                        "tensor": {
                            "dtype": "DT_FLOAT",
                            "tensorShape": {
                                "dim": [
                                    { "size": "3" },
                                    { "size": "3" },
                                    { "size": "3" },
                                    { "size": "32" }
                                ]
                            }
                        }
                    },
                    "dtype": { "type": "DT_FLOAT" }
                }
            },
            {
                "name": "StatefulPartitionedCall/model/conv2d/Conv2D_bn_offset",
                "op": "Const",
                "attr": {
                    "value": {
                        "tensor": {
                            "dtype": "DT_FLOAT",
                            "tensorShape": { "dim": [{ "size": "32" }] }
                        }
                    },
                    "dtype": { "type": "DT_FLOAT" }
                }
            },
            {
                "name": "StatefulPartitionedCall/model/conv2d_1/Conv2D_weights",
                "op": "Const",
                "attr": {
                    "value": {
                        "tensor": {
                            "dtype": "DT_FLOAT",
                            "tensorShape": {
                                "dim": [
                                    { "size": "3" },
                                    { "size": "3" },
                                    { "size": "32" },
                                    { "size": "64" }
                                ]
                            }
                        }
                    },
                    "dtype": { "type": "DT_FLOAT" }
                }
            },
            {
                "name": "StatefulPartitionedCall/model/conv2d_1/Conv2D_bn_offset",
                "op": "Const",
                "attr": {
                    "dtype": { "type": "DT_FLOAT" },
                    "value": {
                        "tensor": {
                            "dtype": "DT_FLOAT",
                            "tensorShape": { "dim": [{ "size": "64" }] }
                        }
                    }
                }
            },
            {
                "name": "StatefulPartitionedCall/model/conv2d_2/Conv2D_weights",
                "op": "Const",
                "attr": {
                    "value": {
                        "tensor": {
                            "dtype": "DT_FLOAT",
                            "tensorShape": {
                                "dim": [
                                    { "size": "1" },
                                    { "size": "1" },
                                    { "size": "64" },
                                    { "size": "64" }
                                ]
                            }
                        }
                    },
                    "dtype": { "type": "DT_FLOAT" }
                }
            },
            {
                "name": "StatefulPartitionedCall/model/conv2d_2/Conv2D_bn_offset",
                "op": "Const",
                "attr": {
                    "value": {
                        "tensor": {
                            "dtype": "DT_FLOAT",
                            "tensorShape": { "dim": [{ "size": "64" }] }
                        }
                    },
                    "dtype": { "type": "DT_FLOAT" }
                }
            },
            {
                "name": "StatefulPartitionedCall/model/conv2d_3/Conv2D_weights",
                "op": "Const",
                "attr": {
                    "value": {
                        "tensor": {
                            "dtype": "DT_FLOAT",
                            "tensorShape": {
                                "dim": [
                                    { "size": "3" },
                                    { "size": "3" },
                                    { "size": "32" },
                                    { "size": "16" }
                                ]
                            }
                        }
                    },
                    "dtype": { "type": "DT_FLOAT" }
                }
            },
            {
                "name": "StatefulPartitionedCall/model/conv2d_61/Conv2D_weights",
                "op": "Const",
                "attr": {
                    "dtype": { "type": "DT_FLOAT" },
                    "value": {
                        "tensor": {
                            "dtype": "DT_FLOAT",
                            "tensorShape": {
                                "dim": [
                                    { "size": "1" },
                                    { "size": "1" },
                                    { "size": "768" },
                                    { "size": "512" }
                                ]
                            }
                        }
                    }
                }
            },
            {
                "name": "StatefulPartitionedCall/model/conv2d_3/Conv2D_bn_offset",
                "op": "Const",
                "attr": {
                    "value": {
                        "tensor": {
                            "dtype": "DT_FLOAT",
                            "tensorShape": { "dim": [{ "size": "16" }] }
                        }
                    },
                    "dtype": { "type": "DT_FLOAT" }
                }
            },
            {
                "name": "StatefulPartitionedCall/model/conv2d_4/Conv2D_weights",
                "op": "Const",
                "attr": {
                    "dtype": { "type": "DT_FLOAT" },
                    "value": {
                        "tensor": {
                            "dtype": "DT_FLOAT",
                            "tensorShape": {
                                "dim": [
                                    { "size": "3" },
                                    { "size": "3" },
                                    { "size": "16" },
                                    { "size": "32" }
                                ]
                            }
                        }
                    }
                }
            },
            {
                "name": "StatefulPartitionedCall/model/conv2d_4/Conv2D_bn_offset",
                "op": "Const",
                "attr": {
                    "value": {
                        "tensor": {
                            "dtype": "DT_FLOAT",
                            "tensorShape": { "dim": [{ "size": "32" }] }
                        }
                    },
                    "dtype": { "type": "DT_FLOAT" }
                }
            },
            {
                "name": "StatefulPartitionedCall/model/conv2d_5/Conv2D_weights",
                "op": "Const",
                "attr": {
                    "dtype": { "type": "DT_FLOAT" },
                    "value": {
                        "tensor": {
                            "dtype": "DT_FLOAT",
                            "tensorShape": {
                                "dim": [
                                    { "size": "1" },
                                    { "size": "1" },
                                    { "size": "96" },
                                    { "size": "128" }
                                ]
                            }
                        }
                    }
                }
            },
            {
                "name": "StatefulPartitionedCall/model/conv2d_61/Conv2D_bn_offset",
                "op": "Const",
                "attr": {
                    "dtype": { "type": "DT_FLOAT" },
                    "value": {
                        "tensor": {
                            "dtype": "DT_FLOAT",
                            "tensorShape": { "dim": [{ "size": "512" }] }
                        }
                    }
                }
            },
            {
                "name": "StatefulPartitionedCall/model/conv2d_5/Conv2D_bn_offset",
                "op": "Const",
                "attr": {
                    "dtype": { "type": "DT_FLOAT" },
                    "value": {
                        "tensor": {
                            "dtype": "DT_FLOAT",
                            "tensorShape": { "dim": [{ "size": "128" }] }
                        }
                    }
                }
            },
            {
                "name": "StatefulPartitionedCall/model/conv2d_6/Conv2D_weights",
                "op": "Const",
                "attr": {
                    "value": {
                        "tensor": {
                            "dtype": "DT_FLOAT",
                            "tensorShape": {
                                "dim": [
                                    { "size": "3" },
                                    { "size": "3" },
                                    { "size": "128" },
                                    { "size": "128" }
                                ]
                            }
                        }
                    },
                    "dtype": { "type": "DT_FLOAT" }
                }
            },
            {
                "name": "StatefulPartitionedCall/model/conv2d_6/Conv2D_bn_offset",
                "op": "Const",
                "attr": {
                    "value": {
                        "tensor": {
                            "dtype": "DT_FLOAT",
                            "tensorShape": { "dim": [{ "size": "128" }] }
                        }
                    },
                    "dtype": { "type": "DT_FLOAT" }
                }
            },
            {
                "name": "StatefulPartitionedCall/model/conv2d_7/Conv2D_weights",
                "op": "Const",
                "attr": {
                    "dtype": { "type": "DT_FLOAT" },
                    "value": {
                        "tensor": {
                            "dtype": "DT_FLOAT",
                            "tensorShape": {
                                "dim": [
                                    { "size": "1" },
                                    { "size": "1" },
                                    { "size": "128" },
                                    { "size": "128" }
                                ]
                            }
                        }
                    }
                }
            },
            {
                "name": "StatefulPartitionedCall/model/conv2d_7/Conv2D_bn_offset",
                "op": "Const",
                "attr": {
                    "dtype": { "type": "DT_FLOAT" },
                    "value": {
                        "tensor": {
                            "dtype": "DT_FLOAT",
                            "tensorShape": { "dim": [{ "size": "128" }] }
                        }
                    }
                }
            },
            {
                "name": "StatefulPartitionedCall/model/conv2d_8/Conv2D_weights",
                "op": "Const",
                "attr": {
                    "value": {
                        "tensor": {
                            "dtype": "DT_FLOAT",
                            "tensorShape": {
                                "dim": [
                                    { "size": "3" },
                                    { "size": "3" },
                                    { "size": "64" },
                                    { "size": "32" }
                                ]
                            }
                        }
                    },
                    "dtype": { "type": "DT_FLOAT" }
                }
            },
            {
                "name": "StatefulPartitionedCall/model/conv2d_8/Conv2D_bn_offset",
                "op": "Const",
                "attr": {
                    "dtype": { "type": "DT_FLOAT" },
                    "value": {
                        "tensor": {
                            "dtype": "DT_FLOAT",
                            "tensorShape": { "dim": [{ "size": "32" }] }
                        }
                    }
                }
            },
            {
                "name": "StatefulPartitionedCall/model/conv2d_9/Conv2D_weights",
                "op": "Const",
                "attr": {
                    "dtype": { "type": "DT_FLOAT" },
                    "value": {
                        "tensor": {
                            "dtype": "DT_FLOAT",
                            "tensorShape": {
                                "dim": [
                                    { "size": "3" },
                                    { "size": "3" },
                                    { "size": "32" },
                                    { "size": "64" }
                                ]
                            }
                        }
                    }
                }
            },
            {
                "name": "StatefulPartitionedCall/model/conv2d_9/Conv2D_bn_offset",
                "op": "Const",
                "attr": {
                    "dtype": { "type": "DT_FLOAT" },
                    "value": {
                        "tensor": {
                            "dtype": "DT_FLOAT",
                            "tensorShape": { "dim": [{ "size": "64" }] }
                        }
                    }
                }
            },
            {
                "name": "StatefulPartitionedCall/model/conv2d_10/Conv2D_weights",
                "op": "Const",
                "attr": {
                    "dtype": { "type": "DT_FLOAT" },
                    "value": {
                        "tensor": {
                            "dtype": "DT_FLOAT",
                            "tensorShape": {
                                "dim": [
                                    { "size": "1" },
                                    { "size": "1" },
                                    { "size": "192" },
                                    { "size": "256" }
                                ]
                            }
                        }
                    }
                }
            },
            {
                "name": "StatefulPartitionedCall/model/conv2d_10/Conv2D_bn_offset",
                "op": "Const",
                "attr": {
                    "value": {
                        "tensor": {
                            "dtype": "DT_FLOAT",
                            "tensorShape": { "dim": [{ "size": "256" }] }
                        }
                    },
                    "dtype": { "type": "DT_FLOAT" }
                }
            },
            {
                "name": "StatefulPartitionedCall/model/conv2d_11/Conv2D_weights",
                "op": "Const",
                "attr": {
                    "dtype": { "type": "DT_FLOAT" },
                    "value": {
                        "tensor": {
                            "dtype": "DT_FLOAT",
                            "tensorShape": {
                                "dim": [
                                    { "size": "3" },
                                    { "size": "3" },
                                    { "size": "256" },
                                    { "size": "256" }
                                ]
                            }
                        }
                    }
                }
            },
            {
                "name": "StatefulPartitionedCall/model/conv2d_74/Conv2D_weights",
                "op": "Const",
                "attr": {
                    "dtype": { "type": "DT_FLOAT" },
                    "value": {
                        "tensor": {
                            "dtype": "DT_FLOAT",
                            "tensorShape": {
                                "dim": [
                                    { "size": "3" },
                                    { "size": "3" },
                                    { "size": "512" },
                                    { "size": "64" }
                                ]
                            }
                        }
                    }
                }
            },
            {
                "name": "StatefulPartitionedCall/model/conv2d_11/Conv2D_bn_offset",
                "op": "Const",
                "attr": {
                    "dtype": { "type": "DT_FLOAT" },
                    "value": {
                        "tensor": {
                            "dtype": "DT_FLOAT",
                            "tensorShape": { "dim": [{ "size": "256" }] }
                        }
                    }
                }
            },
            {
                "name": "StatefulPartitionedCall/model/conv2d_12/Conv2D_weights",
                "op": "Const",
                "attr": {
                    "dtype": { "type": "DT_FLOAT" },
                    "value": {
                        "tensor": {
                            "dtype": "DT_FLOAT",
                            "tensorShape": {
                                "dim": [
                                    { "size": "1" },
                                    { "size": "1" },
                                    { "size": "256" },
                                    { "size": "256" }
                                ]
                            }
                        }
                    }
                }
            },
            {
                "name": "StatefulPartitionedCall/model/conv2d_12/Conv2D_bn_offset",
                "op": "Const",
                "attr": {
                    "value": {
                        "tensor": {
                            "dtype": "DT_FLOAT",
                            "tensorShape": { "dim": [{ "size": "256" }] }
                        }
                    },
                    "dtype": { "type": "DT_FLOAT" }
                }
            },
            {
                "name": "StatefulPartitionedCall/model/conv2d_13/Conv2D_weights",
                "op": "Const",
                "attr": {
                    "dtype": { "type": "DT_FLOAT" },
                    "value": {
                        "tensor": {
                            "dtype": "DT_FLOAT",
                            "tensorShape": {
                                "dim": [
                                    { "size": "1" },
                                    { "size": "1" },
                                    { "size": "128" },
                                    { "size": "64" }
                                ]
                            }
                        }
                    }
                }
            },
            {
                "name": "StatefulPartitionedCall/model/conv2d_74/Conv2D_bn_offset",
                "op": "Const",
                "attr": {
                    "dtype": { "type": "DT_FLOAT" },
                    "value": {
                        "tensor": {
                            "dtype": "DT_FLOAT",
                            "tensorShape": { "dim": [{ "size": "64" }] }
                        }
                    }
                }
            },
            {
                "name": "StatefulPartitionedCall/model/conv2d_13/Conv2D_bn_offset",
                "op": "Const",
                "attr": {
                    "value": {
                        "tensor": {
                            "dtype": "DT_FLOAT",
                            "tensorShape": { "dim": [{ "size": "64" }] }
                        }
                    },
                    "dtype": { "type": "DT_FLOAT" }
                }
            },
            {
                "name": "StatefulPartitionedCall/model/conv2d_18/Conv2D_weights",
                "op": "Const",
                "attr": {
                    "dtype": { "type": "DT_FLOAT" },
                    "value": {
                        "tensor": {
                            "dtype": "DT_FLOAT",
                            "tensorShape": {
                                "dim": [
                                    { "size": "1" },
                                    { "size": "1" },
                                    { "size": "128" },
                                    { "size": "64" }
                                ]
                            }
                        }
                    }
                }
            },
            {
                "name": "StatefulPartitionedCall/model/conv2d_18/Conv2D_bn_offset",
                "op": "Const",
                "attr": {
                    "dtype": { "type": "DT_FLOAT" },
                    "value": {
                        "tensor": {
                            "dtype": "DT_FLOAT",
                            "tensorShape": { "dim": [{ "size": "64" }] }
                        }
                    }
                }
            },
            {
                "name": "StatefulPartitionedCall/model/conv2d_14/Conv2D_weights",
                "op": "Const",
                "attr": {
                    "dtype": { "type": "DT_FLOAT" },
                    "value": {
                        "tensor": {
                            "dtype": "DT_FLOAT",
                            "tensorShape": {
                                "dim": [
                                    { "size": "3" },
                                    { "size": "3" },
                                    { "size": "64" },
                                    { "size": "64" }
                                ]
                            }
                        }
                    }
                }
            },
            {
                "name": "StatefulPartitionedCall/model/conv2d_14/Conv2D_bn_offset",
                "op": "Const",
                "attr": {
                    "value": {
                        "tensor": {
                            "dtype": "DT_FLOAT",
                            "tensorShape": { "dim": [{ "size": "64" }] }
                        }
                    },
                    "dtype": { "type": "DT_FLOAT" }
                }
            },
            {
                "name": "StatefulPartitionedCall/model/conv2d_15/Conv2D_weights",
                "op": "Const",
                "attr": {
                    "dtype": { "type": "DT_FLOAT" },
                    "value": {
                        "tensor": {
                            "dtype": "DT_FLOAT",
                            "tensorShape": {
                                "dim": [
                                    { "size": "3" },
                                    { "size": "3" },
                                    { "size": "64" },
                                    { "size": "64" }
                                ]
                            }
                        }
                    }
                }
            },
            {
                "name": "StatefulPartitionedCall/model/conv2d_15/Conv2D_bn_offset",
                "op": "Const",
                "attr": {
                    "dtype": { "type": "DT_FLOAT" },
                    "value": {
                        "tensor": {
                            "dtype": "DT_FLOAT",
                            "tensorShape": { "dim": [{ "size": "64" }] }
                        }
                    }
                }
            },
            {
                "name": "StatefulPartitionedCall/model/conv2d_16/Conv2D_weights",
                "op": "Const",
                "attr": {
                    "dtype": { "type": "DT_FLOAT" },
                    "value": {
                        "tensor": {
                            "dtype": "DT_FLOAT",
                            "tensorShape": {
                                "dim": [
                                    { "size": "3" },
                                    { "size": "3" },
                                    { "size": "64" },
                                    { "size": "64" }
                                ]
                            }
                        }
                    }
                }
            },
            {
                "name": "StatefulPartitionedCall/model/conv2d_16/Conv2D_bn_offset",
                "op": "Const",
                "attr": {
                    "dtype": { "type": "DT_FLOAT" },
                    "value": {
                        "tensor": {
                            "dtype": "DT_FLOAT",
                            "tensorShape": { "dim": [{ "size": "64" }] }
                        }
                    }
                }
            },
            {
                "name": "StatefulPartitionedCall/model/conv2d_17/Conv2D_weights",
                "op": "Const",
                "attr": {
                    "dtype": { "type": "DT_FLOAT" },
                    "value": {
                        "tensor": {
                            "dtype": "DT_FLOAT",
                            "tensorShape": {
                                "dim": [
                                    { "size": "3" },
                                    { "size": "3" },
                                    { "size": "64" },
                                    { "size": "64" }
                                ]
                            }
                        }
                    }
                }
            },
            {
                "name": "StatefulPartitionedCall/model/depthwise_conv2d_5/depthwise_weights",
                "op": "Const",
                "attr": {
                    "dtype": { "type": "DT_FLOAT" },
                    "value": {
                        "tensor": {
                            "dtype": "DT_FLOAT",
                            "tensorShape": {
                                "dim": [
                                    { "size": "3" },
                                    { "size": "3" },
                                    { "size": "512" },
                                    { "size": "1" }
                                ]
                            }
                        }
                    }
                }
            },
            {
                "name": "StatefulPartitionedCall/model/conv2d_17/Conv2D_bn_offset",
                "op": "Const",
                "attr": {
                    "value": {
                        "tensor": {
                            "dtype": "DT_FLOAT",
                            "tensorShape": { "dim": [{ "size": "64" }] }
                        }
                    },
                    "dtype": { "type": "DT_FLOAT" }
                }
            },
            {
                "name": "StatefulPartitionedCall/model/conv2d_19/Conv2D_weights",
                "op": "Const",
                "attr": {
                    "value": {
                        "tensor": {
                            "dtype": "DT_FLOAT",
                            "tensorShape": {
                                "dim": [
                                    { "size": "1" },
                                    { "size": "1" },
                                    { "size": "128" },
                                    { "size": "128" }
                                ]
                            }
                        }
                    },
                    "dtype": { "type": "DT_FLOAT" }
                }
            },
            {
                "name": "StatefulPartitionedCall/model/conv2d_19/Conv2D_bn_offset",
                "op": "Const",
                "attr": {
                    "dtype": { "type": "DT_FLOAT" },
                    "value": {
                        "tensor": {
                            "dtype": "DT_FLOAT",
                            "tensorShape": { "dim": [{ "size": "128" }] }
                        }
                    }
                }
            },
            {
                "name": "StatefulPartitionedCall/model/conv2d_20/Conv2D_weights",
                "op": "Const",
                "attr": {
                    "dtype": { "type": "DT_FLOAT" },
                    "value": {
                        "tensor": {
                            "dtype": "DT_FLOAT",
                            "tensorShape": {
                                "dim": [
                                    { "size": "1" },
                                    { "size": "1" },
                                    { "size": "384" },
                                    { "size": "256" }
                                ]
                            }
                        }
                    }
                }
            },
            {
                "name": "StatefulPartitionedCall/model/depthwise_conv2d_5/depthwise_bn_offset",
                "op": "Const",
                "attr": {
                    "dtype": { "type": "DT_FLOAT" },
                    "value": {
                        "tensor": {
                            "dtype": "DT_FLOAT",
                            "tensorShape": { "dim": [{ "size": "512" }] }
                        }
                    }
                }
            },
            {
                "name": "StatefulPartitionedCall/model/conv2d_20/Conv2D_bn_offset",
                "op": "Const",
                "attr": {
                    "value": {
                        "tensor": {
                            "dtype": "DT_FLOAT",
                            "tensorShape": { "dim": [{ "size": "256" }] }
                        }
                    },
                    "dtype": { "type": "DT_FLOAT" }
                }
            },
            {
                "name": "StatefulPartitionedCall/model/conv2d_21/Conv2D_weights",
                "op": "Const",
                "attr": {
                    "dtype": { "type": "DT_FLOAT" },
                    "value": {
                        "tensor": {
                            "dtype": "DT_FLOAT",
                            "tensorShape": {
                                "dim": [
                                    { "size": "3" },
                                    { "size": "3" },
                                    { "size": "256" },
                                    { "size": "512" }
                                ]
                            }
                        }
                    }
                }
            },
            {
                "name": "StatefulPartitionedCall/model/conv2d_21/Conv2D_bn_offset",
                "op": "Const",
                "attr": {
                    "dtype": { "type": "DT_FLOAT" },
                    "value": {
                        "tensor": {
                            "dtype": "DT_FLOAT",
                            "tensorShape": { "dim": [{ "size": "512" }] }
                        }
                    }
                }
            },
            {
                "name": "StatefulPartitionedCall/model/conv2d_22/Conv2D_weights",
                "op": "Const",
                "attr": {
                    "dtype": { "type": "DT_FLOAT" },
                    "value": {
                        "tensor": {
                            "dtype": "DT_FLOAT",
                            "tensorShape": {
                                "dim": [
                                    { "size": "1" },
                                    { "size": "1" },
                                    { "size": "512" },
                                    { "size": "512" }
                                ]
                            }
                        }
                    }
                }
            },
            {
                "name": "StatefulPartitionedCall/model/conv2d_22/Conv2D_bn_offset",
                "op": "Const",
                "attr": {
                    "dtype": { "type": "DT_FLOAT" },
                    "value": {
                        "tensor": {
                            "dtype": "DT_FLOAT",
                            "tensorShape": { "dim": [{ "size": "512" }] }
                        }
                    }
                }
            },
            {
                "name": "StatefulPartitionedCall/model/conv2d_23/Conv2D_weights",
                "op": "Const",
                "attr": {
                    "dtype": { "type": "DT_FLOAT" },
                    "value": {
                        "tensor": {
                            "dtype": "DT_FLOAT",
                            "tensorShape": {
                                "dim": [
                                    { "size": "1" },
                                    { "size": "1" },
                                    { "size": "256" },
                                    { "size": "128" }
                                ]
                            }
                        }
                    }
                }
            },
            {
                "name": "StatefulPartitionedCall/model/conv2d_23/Conv2D_bn_offset",
                "op": "Const",
                "attr": {
                    "value": {
                        "tensor": {
                            "dtype": "DT_FLOAT",
                            "tensorShape": { "dim": [{ "size": "128" }] }
                        }
                    },
                    "dtype": { "type": "DT_FLOAT" }
                }
            },
            {
                "name": "StatefulPartitionedCall/model/conv2d_28/Conv2D_weights",
                "op": "Const",
                "attr": {
                    "value": {
                        "tensor": {
                            "dtype": "DT_FLOAT",
                            "tensorShape": {
                                "dim": [
                                    { "size": "1" },
                                    { "size": "1" },
                                    { "size": "256" },
                                    { "size": "128" }
                                ]
                            }
                        }
                    },
                    "dtype": { "type": "DT_FLOAT" }
                }
            },
            {
                "name": "StatefulPartitionedCall/model/conv2d_77/Conv2D_weights",
                "op": "Const",
                "attr": {
                    "value": {
                        "tensor": {
                            "dtype": "DT_FLOAT",
                            "tensorShape": {
                                "dim": [
                                    { "size": "1" },
                                    { "size": "1" },
                                    { "size": "512" },
                                    { "size": "128" }
                                ]
                            }
                        }
                    },
                    "dtype": { "type": "DT_FLOAT" }
                }
            },
            {
                "name": "StatefulPartitionedCall/model/conv2d_28/Conv2D_bn_offset",
                "op": "Const",
                "attr": {
                    "value": {
                        "tensor": {
                            "dtype": "DT_FLOAT",
                            "tensorShape": { "dim": [{ "size": "128" }] }
                        }
                    },
                    "dtype": { "type": "DT_FLOAT" }
                }
            },
            {
                "name": "StatefulPartitionedCall/model/conv2d_24/Conv2D_weights",
                "op": "Const",
                "attr": {
                    "value": {
                        "tensor": {
                            "dtype": "DT_FLOAT",
                            "tensorShape": {
                                "dim": [
                                    { "size": "3" },
                                    { "size": "3" },
                                    { "size": "128" },
                                    { "size": "128" }
                                ]
                            }
                        }
                    },
                    "dtype": { "type": "DT_FLOAT" }
                }
            },
            {
                "name": "StatefulPartitionedCall/model/conv2d_24/Conv2D_bn_offset",
                "op": "Const",
                "attr": {
                    "value": {
                        "tensor": {
                            "dtype": "DT_FLOAT",
                            "tensorShape": { "dim": [{ "size": "128" }] }
                        }
                    },
                    "dtype": { "type": "DT_FLOAT" }
                }
            },
            {
                "name": "StatefulPartitionedCall/model/conv2d_25/Conv2D_weights",
                "op": "Const",
                "attr": {
                    "dtype": { "type": "DT_FLOAT" },
                    "value": {
                        "tensor": {
                            "dtype": "DT_FLOAT",
                            "tensorShape": {
                                "dim": [
                                    { "size": "3" },
                                    { "size": "3" },
                                    { "size": "128" },
                                    { "size": "128" }
                                ]
                            }
                        }
                    }
                }
            },
            {
                "name": "StatefulPartitionedCall/model/conv2d_77/Conv2D_bn_offset",
                "op": "Const",
                "attr": {
                    "value": {
                        "tensor": {
                            "dtype": "DT_FLOAT",
                            "tensorShape": { "dim": [{ "size": "128" }] }
                        }
                    },
                    "dtype": { "type": "DT_FLOAT" }
                }
            },
            {
                "name": "StatefulPartitionedCall/model/conv2d_25/Conv2D_bn_offset",
                "op": "Const",
                "attr": {
                    "dtype": { "type": "DT_FLOAT" },
                    "value": {
                        "tensor": {
                            "dtype": "DT_FLOAT",
                            "tensorShape": { "dim": [{ "size": "128" }] }
                        }
                    }
                }
            },
            {
                "name": "StatefulPartitionedCall/model/conv2d_26/Conv2D_weights",
                "op": "Const",
                "attr": {
                    "value": {
                        "tensor": {
                            "dtype": "DT_FLOAT",
                            "tensorShape": {
                                "dim": [
                                    { "size": "3" },
                                    { "size": "3" },
                                    { "size": "128" },
                                    { "size": "128" }
                                ]
                            }
                        }
                    },
                    "dtype": { "type": "DT_FLOAT" }
                }
            },
            {
                "name": "StatefulPartitionedCall/model/conv2d_26/Conv2D_bn_offset",
                "op": "Const",
                "attr": {
                    "value": {
                        "tensor": {
                            "dtype": "DT_FLOAT",
                            "tensorShape": { "dim": [{ "size": "128" }] }
                        }
                    },
                    "dtype": { "type": "DT_FLOAT" }
                }
            },
            {
                "name": "StatefulPartitionedCall/model/conv2d_27/Conv2D_weights",
                "op": "Const",
                "attr": {
                    "value": {
                        "tensor": {
                            "dtype": "DT_FLOAT",
                            "tensorShape": {
                                "dim": [
                                    { "size": "3" },
                                    { "size": "3" },
                                    { "size": "128" },
                                    { "size": "128" }
                                ]
                            }
                        }
                    },
                    "dtype": { "type": "DT_FLOAT" }
                }
            },
            {
                "name": "StatefulPartitionedCall/model/conv2d_27/Conv2D_bn_offset",
                "op": "Const",
                "attr": {
                    "dtype": { "type": "DT_FLOAT" },
                    "value": {
                        "tensor": {
                            "dtype": "DT_FLOAT",
                            "tensorShape": { "dim": [{ "size": "128" }] }
                        }
                    }
                }
            },
            {
                "name": "StatefulPartitionedCall/model/conv2d_29/Conv2D_weights",
                "op": "Const",
                "attr": {
                    "value": {
                        "tensor": {
                            "dtype": "DT_FLOAT",
                            "tensorShape": {
                                "dim": [
                                    { "size": "1" },
                                    { "size": "1" },
                                    { "size": "256" },
                                    { "size": "256" }
                                ]
                            }
                        }
                    },
                    "dtype": { "type": "DT_FLOAT" }
                }
            },
            {
                "name": "StatefulPartitionedCall/model/conv2d_29/Conv2D_bn_offset",
                "op": "Const",
                "attr": {
                    "value": {
                        "tensor": {
                            "dtype": "DT_FLOAT",
                            "tensorShape": { "dim": [{ "size": "256" }] }
                        }
                    },
                    "dtype": { "type": "DT_FLOAT" }
                }
            },
            {
                "name": "StatefulPartitionedCall/model/conv2d_30/Conv2D_weights",
                "op": "Const",
                "attr": {
                    "dtype": { "type": "DT_FLOAT" },
                    "value": {
                        "tensor": {
                            "dtype": "DT_FLOAT",
                            "tensorShape": {
                                "dim": [
                                    { "size": "1" },
                                    { "size": "1" },
                                    { "size": "768" },
                                    { "size": "512" }
                                ]
                            }
                        }
                    }
                }
            },
            {
                "name": "StatefulPartitionedCall/model/conv2d_30/Conv2D_bn_offset",
                "op": "Const",
                "attr": {
                    "value": {
                        "tensor": {
                            "dtype": "DT_FLOAT",
                            "tensorShape": { "dim": [{ "size": "512" }] }
                        }
                    },
                    "dtype": { "type": "DT_FLOAT" }
                }
            },
            {
                "name": "StatefulPartitionedCall/model/conv2d_31/Conv2D_weights",
                "op": "Const",
                "attr": {
                    "dtype": { "type": "DT_FLOAT" },
                    "value": {
                        "tensor": {
                            "dtype": "DT_FLOAT",
                            "tensorShape": {
                                "dim": [
                                    { "size": "1" },
                                    { "size": "1" },
                                    { "size": "512" },
                                    { "size": "256" }
                                ]
                            }
                        }
                    }
                }
            },
            {
                "name": "StatefulPartitionedCall/model/conv2d_75/Conv2D_weights",
                "op": "Const",
                "attr": {
                    "dtype": { "type": "DT_FLOAT" },
                    "value": {
                        "tensor": {
                            "dtype": "DT_FLOAT",
                            "tensorShape": {
                                "dim": [
                                    { "size": "3" },
                                    { "size": "3" },
                                    { "size": "64" },
                                    { "size": "64" }
                                ]
                            }
                        }
                    }
                }
            },
            {
                "name": "StatefulPartitionedCall/model/conv2d_31/Conv2D_bn_offset",
                "op": "Const",
                "attr": {
                    "value": {
                        "tensor": {
                            "dtype": "DT_FLOAT",
                            "tensorShape": { "dim": [{ "size": "256" }] }
                        }
                    },
                    "dtype": { "type": "DT_FLOAT" }
                }
            },
            {
                "name": "StatefulPartitionedCall/model/conv2d_32/Conv2D_weights",
                "op": "Const",
                "attr": {
                    "value": {
                        "tensor": {
                            "dtype": "DT_FLOAT",
                            "tensorShape": {
                                "dim": [
                                    { "size": "1" },
                                    { "size": "1" },
                                    { "size": "1024" },
                                    { "size": "512" }
                                ]
                            }
                        }
                    },
                    "dtype": { "type": "DT_FLOAT" }
                }
            },
            {
                "name": "StatefulPartitionedCall/model/conv2d_32/Conv2D_bn_offset",
                "op": "Const",
                "attr": {
                    "value": {
                        "tensor": {
                            "dtype": "DT_FLOAT",
                            "tensorShape": { "dim": [{ "size": "512" }] }
                        }
                    },
                    "dtype": { "type": "DT_FLOAT" }
                }
            },
            {
                "name": "StatefulPartitionedCall/model/conv2d_33/Conv2D_weights",
                "op": "Const",
                "attr": {
                    "dtype": { "type": "DT_FLOAT" },
                    "value": {
                        "tensor": {
                            "dtype": "DT_FLOAT",
                            "tensorShape": {
                                "dim": [
                                    { "size": "1" },
                                    { "size": "1" },
                                    { "size": "512" },
                                    { "size": "512" }
                                ]
                            }
                        }
                    }
                }
            },
            {
                "name": "StatefulPartitionedCall/model/conv2d_75/Conv2D_bn_offset",
                "op": "Const",
                "attr": {
                    "value": {
                        "tensor": {
                            "dtype": "DT_FLOAT",
                            "tensorShape": { "dim": [{ "size": "64" }] }
                        }
                    },
                    "dtype": { "type": "DT_FLOAT" }
                }
            },
            {
                "name": "StatefulPartitionedCall/model/conv2d_33/Conv2D_bn_offset",
                "op": "Const",
                "attr": {
                    "dtype": { "type": "DT_FLOAT" },
                    "value": {
                        "tensor": {
                            "dtype": "DT_FLOAT",
                            "tensorShape": { "dim": [{ "size": "512" }] }
                        }
                    }
                }
            },
            {
                "name": "StatefulPartitionedCall/model/conv2d_34/Conv2D_weights",
                "op": "Const",
                "attr": {
                    "dtype": { "type": "DT_FLOAT" },
                    "value": {
                        "tensor": {
                            "dtype": "DT_FLOAT",
                            "tensorShape": {
                                "dim": [
                                    { "size": "1" },
                                    { "size": "1" },
                                    { "size": "256" },
                                    { "size": "512" }
                                ]
                            }
                        }
                    }
                }
            },
            {
                "name": "StatefulPartitionedCall/model/conv2d_34/Conv2D_bn_offset",
                "op": "Const",
                "attr": {
                    "dtype": { "type": "DT_FLOAT" },
                    "value": {
                        "tensor": {
                            "dtype": "DT_FLOAT",
                            "tensorShape": { "dim": [{ "size": "512" }] }
                        }
                    }
                }
            },
            {
                "name": "StatefulPartitionedCall/model/depthwise_conv2d/depthwise_weights",
                "op": "Const",
                "attr": {
                    "dtype": { "type": "DT_FLOAT" },
                    "value": {
                        "tensor": {
                            "dtype": "DT_FLOAT",
                            "tensorShape": {
                                "dim": [
                                    { "size": "3" },
                                    { "size": "3" },
                                    { "size": "256" },
                                    { "size": "1" }
                                ]
                            }
                        }
                    }
                }
            },
            {
                "name": "StatefulPartitionedCall/model/depthwise_conv2d/depthwise_bn_offset",
                "op": "Const",
                "attr": {
                    "dtype": { "type": "DT_FLOAT" },
                    "value": {
                        "tensor": {
                            "dtype": "DT_FLOAT",
                            "tensorShape": { "dim": [{ "size": "256" }] }
                        }
                    }
                }
            },
            {
                "name": "StatefulPartitionedCall/model/conv2d_35/Conv2D_weights",
                "op": "Const",
                "attr": {
                    "dtype": { "type": "DT_FLOAT" },
                    "value": {
                        "tensor": {
                            "dtype": "DT_FLOAT",
                            "tensorShape": {
                                "dim": [
                                    { "size": "1" },
                                    { "size": "1" },
                                    { "size": "256" },
                                    { "size": "256" }
                                ]
                            }
                        }
                    }
                }
            },
            {
                "name": "StatefulPartitionedCall/model/conv2d_35/Conv2D_bn_offset",
                "op": "Const",
                "attr": {
                    "dtype": { "type": "DT_FLOAT" },
                    "value": {
                        "tensor": {
                            "dtype": "DT_FLOAT",
                            "tensorShape": { "dim": [{ "size": "256" }] }
                        }
                    }
                }
            },
            {
                "name": "StatefulPartitionedCall/model/conv2d_36/Conv2D_weights",
                "op": "Const",
                "attr": {
                    "dtype": { "type": "DT_FLOAT" },
                    "value": {
                        "tensor": {
                            "dtype": "DT_FLOAT",
                            "tensorShape": {
                                "dim": [
                                    { "size": "1" },
                                    { "size": "1" },
                                    { "size": "256" },
                                    { "size": "512" }
                                ]
                            }
                        }
                    }
                }
            },
            {
                "name": "StatefulPartitionedCall/model/conv2d_36/Conv2D_bn_offset",
                "op": "Const",
                "attr": {
                    "value": {
                        "tensor": {
                            "dtype": "DT_FLOAT",
                            "tensorShape": { "dim": [{ "size": "512" }] }
                        }
                    },
                    "dtype": { "type": "DT_FLOAT" }
                }
            },
            {
                "name": "StatefulPartitionedCall/model/conv2d_37/Conv2D_weights",
                "op": "Const",
                "attr": {
                    "value": {
                        "tensor": {
                            "dtype": "DT_FLOAT",
                            "tensorShape": {
                                "dim": [
                                    { "size": "1" },
                                    { "size": "1" },
                                    { "size": "512" },
                                    { "size": "256" }
                                ]
                            }
                        }
                    },
                    "dtype": { "type": "DT_FLOAT" }
                }
            },
            {
                "name": "StatefulPartitionedCall/model/conv2d_37/Conv2D_bn_offset",
                "op": "Const",
                "attr": {
                    "dtype": { "type": "DT_FLOAT" },
                    "value": {
                        "tensor": {
                            "dtype": "DT_FLOAT",
                            "tensorShape": { "dim": [{ "size": "256" }] }
                        }
                    }
                }
            },
            {
                "name": "StatefulPartitionedCall/model/conv2d_38/Conv2D_weights",
                "op": "Const",
                "attr": {
                    "dtype": { "type": "DT_FLOAT" },
                    "value": {
                        "tensor": {
                            "dtype": "DT_FLOAT",
                            "tensorShape": {
                                "dim": [
                                    { "size": "1" },
                                    { "size": "1" },
                                    { "size": "512" },
                                    { "size": "512" }
                                ]
                            }
                        }
                    }
                }
            },
            {
                "name": "StatefulPartitionedCall/model/conv2d_38/Conv2D_bn_offset",
                "op": "Const",
                "attr": {
                    "value": {
                        "tensor": {
                            "dtype": "DT_FLOAT",
                            "tensorShape": { "dim": [{ "size": "512" }] }
                        }
                    },
                    "dtype": { "type": "DT_FLOAT" }
                }
            },
            {
                "name": "StatefulPartitionedCall/model/conv2d_39/Conv2D_weights",
                "op": "Const",
                "attr": {
                    "dtype": { "type": "DT_FLOAT" },
                    "value": {
                        "tensor": {
                            "dtype": "DT_FLOAT",
                            "tensorShape": {
                                "dim": [
                                    { "size": "1" },
                                    { "size": "1" },
                                    { "size": "768" },
                                    { "size": "256" }
                                ]
                            }
                        }
                    }
                }
            },
            {
                "name": "StatefulPartitionedCall/model/depthwise_conv2d_6/depthwise_weights",
                "op": "Const",
                "attr": {
                    "value": {
                        "tensor": {
                            "dtype": "DT_FLOAT",
                            "tensorShape": {
                                "dim": [
                                    { "size": "3" },
                                    { "size": "3" },
                                    { "size": "128" },
                                    { "size": "1" }
                                ]
                            }
                        }
                    },
                    "dtype": { "type": "DT_FLOAT" }
                }
            },
            {
                "name": "StatefulPartitionedCall/model/conv2d_39/Conv2D_bn_offset",
                "op": "Const",
                "attr": {
                    "value": {
                        "tensor": {
                            "dtype": "DT_FLOAT",
                            "tensorShape": { "dim": [{ "size": "256" }] }
                        }
                    },
                    "dtype": { "type": "DT_FLOAT" }
                }
            },
            {
                "name": "StatefulPartitionedCall/model/conv2d_40/Conv2D_weights",
                "op": "Const",
                "attr": {
                    "value": {
                        "tensor": {
                            "dtype": "DT_FLOAT",
                            "tensorShape": {
                                "dim": [
                                    { "size": "3" },
                                    { "size": "3" },
                                    { "size": "128" },
                                    { "size": "64" }
                                ]
                            }
                        }
                    },
                    "dtype": { "type": "DT_FLOAT" }
                }
            },
            {
                "name": "StatefulPartitionedCall/model/conv2d_40/Conv2D_bn_offset",
                "op": "Const",
                "attr": {
                    "value": {
                        "tensor": {
                            "dtype": "DT_FLOAT",
                            "tensorShape": { "dim": [{ "size": "64" }] }
                        }
                    },
                    "dtype": { "type": "DT_FLOAT" }
                }
            },
            {
                "name": "StatefulPartitionedCall/model/conv2d_41/Conv2D_weights",
                "op": "Const",
                "attr": {
                    "dtype": { "type": "DT_FLOAT" },
                    "value": {
                        "tensor": {
                            "dtype": "DT_FLOAT",
                            "tensorShape": {
                                "dim": [
                                    { "size": "3" },
                                    { "size": "3" },
                                    { "size": "64" },
                                    { "size": "128" }
                                ]
                            }
                        }
                    }
                }
            },
            {
                "name": "StatefulPartitionedCall/model/depthwise_conv2d_6/depthwise_bn_offset",
                "op": "Const",
                "attr": {
                    "dtype": { "type": "DT_FLOAT" },
                    "value": {
                        "tensor": {
                            "dtype": "DT_FLOAT",
                            "tensorShape": { "dim": [{ "size": "128" }] }
                        }
                    }
                }
            },
            {
                "name": "StatefulPartitionedCall/model/conv2d_41/Conv2D_bn_offset",
                "op": "Const",
                "attr": {
                    "value": {
                        "tensor": {
                            "dtype": "DT_FLOAT",
                            "tensorShape": { "dim": [{ "size": "128" }] }
                        }
                    },
                    "dtype": { "type": "DT_FLOAT" }
                }
            },
            {
                "name": "StatefulPartitionedCall/model/conv2d_42/Conv2D_weights",
                "op": "Const",
                "attr": {
                    "value": {
                        "tensor": {
                            "dtype": "DT_FLOAT",
                            "tensorShape": {
                                "dim": [
                                    { "size": "1" },
                                    { "size": "1" },
                                    { "size": "384" },
                                    { "size": "256" }
                                ]
                            }
                        }
                    },
                    "dtype": { "type": "DT_FLOAT" }
                }
            },
            {
                "name": "StatefulPartitionedCall/model/conv2d_42/Conv2D_bn_offset",
                "op": "Const",
                "attr": {
                    "dtype": { "type": "DT_FLOAT" },
                    "value": {
                        "tensor": {
                            "dtype": "DT_FLOAT",
                            "tensorShape": { "dim": [{ "size": "256" }] }
                        }
                    }
                }
            },
            {
                "name": "StatefulPartitionedCall/model/conv2d_43/Conv2D_weights",
                "op": "Const",
                "attr": {
                    "dtype": { "type": "DT_FLOAT" },
                    "value": {
                        "tensor": {
                            "dtype": "DT_FLOAT",
                            "tensorShape": {
                                "dim": [
                                    { "size": "1" },
                                    { "size": "1" },
                                    { "size": "512" },
                                    { "size": "128" }
                                ]
                            }
                        }
                    }
                }
            },
            {
                "name": "StatefulPartitionedCall/model/conv2d_43/Conv2D_bn_offset",
                "op": "Const",
                "attr": {
                    "value": {
                        "tensor": {
                            "dtype": "DT_FLOAT",
                            "tensorShape": { "dim": [{ "size": "128" }] }
                        }
                    },
                    "dtype": { "type": "DT_FLOAT" }
                }
            },
            {
                "name": "StatefulPartitionedCall/model/conv2d_44/Conv2D_weights",
                "op": "Const",
                "attr": {
                    "value": {
                        "tensor": {
                            "dtype": "DT_FLOAT",
                            "tensorShape": {
                                "dim": [
                                    { "size": "3" },
                                    { "size": "3" },
                                    { "size": "64" },
                                    { "size": "32" }
                                ]
                            }
                        }
                    },
                    "dtype": { "type": "DT_FLOAT" }
                }
            },
            {
                "name": "StatefulPartitionedCall/model/conv2d_44/Conv2D_bn_offset",
                "op": "Const",
                "attr": {
                    "value": {
                        "tensor": {
                            "dtype": "DT_FLOAT",
                            "tensorShape": { "dim": [{ "size": "32" }] }
                        }
                    },
                    "dtype": { "type": "DT_FLOAT" }
                }
            },
            {
                "name": "StatefulPartitionedCall/model/conv2d_45/Conv2D_weights",
                "op": "Const",
                "attr": {
                    "value": {
                        "tensor": {
                            "dtype": "DT_FLOAT",
                            "tensorShape": {
                                "dim": [
                                    { "size": "3" },
                                    { "size": "3" },
                                    { "size": "32" },
                                    { "size": "64" }
                                ]
                            }
                        }
                    },
                    "dtype": { "type": "DT_FLOAT" }
                }
            },
            {
                "name": "StatefulPartitionedCall/model/conv2d_78/Conv2D_weights",
                "op": "Const",
                "attr": {
                    "dtype": { "type": "DT_FLOAT" },
                    "value": {
                        "tensor": {
                            "dtype": "DT_FLOAT",
                            "tensorShape": {
                                "dim": [
                                    { "size": "1" },
                                    { "size": "1" },
                                    { "size": "128" },
                                    { "size": "128" }
                                ]
                            }
                        }
                    }
                }
            },
            {
                "name": "StatefulPartitionedCall/model/conv2d_45/Conv2D_bn_offset",
                "op": "Const",
                "attr": {
                    "dtype": { "type": "DT_FLOAT" },
                    "value": {
                        "tensor": {
                            "dtype": "DT_FLOAT",
                            "tensorShape": { "dim": [{ "size": "64" }] }
                        }
                    }
                }
            },
            {
                "name": "StatefulPartitionedCall/model/conv2d_46/Conv2D_weights",
                "op": "Const",
                "attr": {
                    "dtype": { "type": "DT_FLOAT" },
                    "value": {
                        "tensor": {
                            "dtype": "DT_FLOAT",
                            "tensorShape": {
                                "dim": [
                                    { "size": "1" },
                                    { "size": "1" },
                                    { "size": "192" },
                                    { "size": "128" }
                                ]
                            }
                        }
                    }
                }
            },
            {
                "name": "StatefulPartitionedCall/model/conv2d_46/Conv2D_bn_offset",
                "op": "Const",
                "attr": {
                    "value": {
                        "tensor": {
                            "dtype": "DT_FLOAT",
                            "tensorShape": { "dim": [{ "size": "128" }] }
                        }
                    },
                    "dtype": { "type": "DT_FLOAT" }
                }
            },
            {
                "name": "StatefulPartitionedCall/model/conv2d_62/Conv2D_weights",
                "op": "Const",
                "attr": {
                    "value": {
                        "tensor": {
                            "dtype": "DT_FLOAT",
                            "tensorShape": {
                                "dim": [
                                    { "size": "3" },
                                    { "size": "3" },
                                    { "size": "128" },
                                    { "size": "64" }
                                ]
                            }
                        }
                    },
                    "dtype": { "type": "DT_FLOAT" }
                }
            },
            {
                "name": "StatefulPartitionedCall/model/conv2d_78/Conv2D_bn_offset",
                "op": "Const",
                "attr": {
                    "value": {
                        "tensor": {
                            "dtype": "DT_FLOAT",
                            "tensorShape": { "dim": [{ "size": "128" }] }
                        }
                    },
                    "dtype": { "type": "DT_FLOAT" }
                }
            },
            {
                "name": "StatefulPartitionedCall/model/conv2d_62/Conv2D_bn_offset",
                "op": "Const",
                "attr": {
                    "value": {
                        "tensor": {
                            "dtype": "DT_FLOAT",
                            "tensorShape": { "dim": [{ "size": "64" }] }
                        }
                    },
                    "dtype": { "type": "DT_FLOAT" }
                }
            },
            {
                "name": "StatefulPartitionedCall/model/depthwise_conv2d_1/depthwise_weights",
                "op": "Const",
                "attr": {
                    "dtype": { "type": "DT_FLOAT" },
                    "value": {
                        "tensor": {
                            "dtype": "DT_FLOAT",
                            "tensorShape": {
                                "dim": [
                                    { "size": "3" },
                                    { "size": "3" },
                                    { "size": "128" },
                                    { "size": "1" }
                                ]
                            }
                        }
                    }
                }
            },
            {
                "name": "StatefulPartitionedCall/model/depthwise_conv2d_1/depthwise_bn_offset",
                "op": "Const",
                "attr": {
                    "dtype": { "type": "DT_FLOAT" },
                    "value": {
                        "tensor": {
                            "dtype": "DT_FLOAT",
                            "tensorShape": { "dim": [{ "size": "128" }] }
                        }
                    }
                }
            },
            {
                "name": "StatefulPartitionedCall/model/conv2d_47/Conv2D_weights",
                "op": "Const",
                "attr": {
                    "value": {
                        "tensor": {
                            "dtype": "DT_FLOAT",
                            "tensorShape": {
                                "dim": [
                                    { "size": "3" },
                                    { "size": "3" },
                                    { "size": "128" },
                                    { "size": "128" }
                                ]
                            }
                        }
                    },
                    "dtype": { "type": "DT_FLOAT" }
                }
            },
            {
                "name": "StatefulPartitionedCall/model/conv2d_47/Conv2D_bn_offset",
                "op": "Const",
                "attr": {
                    "value": {
                        "tensor": {
                            "dtype": "DT_FLOAT",
                            "tensorShape": { "dim": [{ "size": "128" }] }
                        }
                    },
                    "dtype": { "type": "DT_FLOAT" }
                }
            },
            {
                "name": "StatefulPartitionedCall/model/conv2d_65/Conv2D_weights",
                "op": "Const",
                "attr": {
                    "value": {
                        "tensor": {
                            "dtype": "DT_FLOAT",
                            "tensorShape": {
                                "dim": [
                                    { "size": "1" },
                                    { "size": "1" },
                                    { "size": "128" },
                                    { "size": "128" }
                                ]
                            }
                        }
                    },
                    "dtype": { "type": "DT_FLOAT" }
                }
            },
            {
                "name": "StatefulPartitionedCall/model/conv2d_65/Conv2D_bn_offset",
                "op": "Const",
                "attr": {
                    "dtype": { "type": "DT_FLOAT" },
                    "value": {
                        "tensor": {
                            "dtype": "DT_FLOAT",
                            "tensorShape": { "dim": [{ "size": "128" }] }
                        }
                    }
                }
            },
            {
                "name": "StatefulPartitionedCall/model/conv2d_63/Conv2D_weights",
                "op": "Const",
                "attr": {
                    "dtype": { "type": "DT_FLOAT" },
                    "value": {
                        "tensor": {
                            "dtype": "DT_FLOAT",
                            "tensorShape": {
                                "dim": [
                                    { "size": "3" },
                                    { "size": "3" },
                                    { "size": "64" },
                                    { "size": "64" }
                                ]
                            }
                        }
                    }
                }
            },
            {
                "name": "StatefulPartitionedCall/model/conv2d_63/Conv2D_bn_offset",
                "op": "Const",
                "attr": {
                    "dtype": { "type": "DT_FLOAT" },
                    "value": {
                        "tensor": {
                            "dtype": "DT_FLOAT",
                            "tensorShape": { "dim": [{ "size": "64" }] }
                        }
                    }
                }
            },
            {
                "name": "StatefulPartitionedCall/model/conv2d_48/Conv2D_weights",
                "op": "Const",
                "attr": {
                    "dtype": { "type": "DT_FLOAT" },
                    "value": {
                        "tensor": {
                            "dtype": "DT_FLOAT",
                            "tensorShape": {
                                "dim": [
                                    { "size": "1" },
                                    { "size": "1" },
                                    { "size": "384" },
                                    { "size": "256" }
                                ]
                            }
                        }
                    }
                }
            },
            {
                "name": "StatefulPartitionedCall/model/conv2d_48/Conv2D_bn_offset",
                "op": "Const",
                "attr": {
                    "dtype": { "type": "DT_FLOAT" },
                    "value": {
                        "tensor": {
                            "dtype": "DT_FLOAT",
                            "tensorShape": { "dim": [{ "size": "256" }] }
                        }
                    }
                }
            },
            {
                "name": "StatefulPartitionedCall/model/depthwise_conv2d_2/depthwise_weights",
                "op": "Const",
                "attr": {
                    "value": {
                        "tensor": {
                            "dtype": "DT_FLOAT",
                            "tensorShape": {
                                "dim": [
                                    { "size": "3" },
                                    { "size": "3" },
                                    { "size": "128" },
                                    { "size": "1" }
                                ]
                            }
                        }
                    },
                    "dtype": { "type": "DT_FLOAT" }
                }
            },
            {
                "name": "StatefulPartitionedCall/model/depthwise_conv2d_2/depthwise_bn_offset",
                "op": "Const",
                "attr": {
                    "value": {
                        "tensor": {
                            "dtype": "DT_FLOAT",
                            "tensorShape": { "dim": [{ "size": "128" }] }
                        }
                    },
                    "dtype": { "type": "DT_FLOAT" }
                }
            },
            {
                "name": "StatefulPartitionedCall/model/conv2d_49/Conv2D_weights",
                "op": "Const",
                "attr": {
                    "value": {
                        "tensor": {
                            "dtype": "DT_FLOAT",
                            "tensorShape": {
                                "dim": [
                                    { "size": "3" },
                                    { "size": "3" },
                                    { "size": "128" },
                                    { "size": "64" }
                                ]
                            }
                        }
                    },
                    "dtype": { "type": "DT_FLOAT" }
                }
            },
            {
                "name": "StatefulPartitionedCall/model/conv2d_49/Conv2D_bn_offset",
                "op": "Const",
                "attr": {
                    "value": {
                        "tensor": {
                            "dtype": "DT_FLOAT",
                            "tensorShape": { "dim": [{ "size": "64" }] }
                        }
                    },
                    "dtype": { "type": "DT_FLOAT" }
                }
            },
            {
                "name": "StatefulPartitionedCall/model/conv2d_66/Conv2D_weights",
                "op": "Const",
                "attr": {
                    "value": {
                        "tensor": {
                            "dtype": "DT_FLOAT",
                            "tensorShape": {
                                "dim": [
                                    { "size": "1" },
                                    { "size": "1" },
                                    { "size": "128" },
                                    { "size": "128" }
                                ]
                            }
                        }
                    },
                    "dtype": { "type": "DT_FLOAT" }
                }
            },
            {
                "name": "StatefulPartitionedCall/model/conv2d_66/Conv2D_bn_offset",
                "op": "Const",
                "attr": {
                    "dtype": { "type": "DT_FLOAT" },
                    "value": {
                        "tensor": {
                            "dtype": "DT_FLOAT",
                            "tensorShape": { "dim": [{ "size": "128" }] }
                        }
                    }
                }
            },
            {
                "name": "StatefulPartitionedCall/model/conv2d_50/Conv2D_weights",
                "op": "Const",
                "attr": {
                    "dtype": { "type": "DT_FLOAT" },
                    "value": {
                        "tensor": {
                            "dtype": "DT_FLOAT",
                            "tensorShape": {
                                "dim": [
                                    { "size": "3" },
                                    { "size": "3" },
                                    { "size": "64" },
                                    { "size": "128" }
                                ]
                            }
                        }
                    }
                }
            },
            {
                "name": "StatefulPartitionedCall/model/conv2d_50/Conv2D_bn_offset",
                "op": "Const",
                "attr": {
                    "value": {
                        "tensor": {
                            "dtype": "DT_FLOAT",
                            "tensorShape": { "dim": [{ "size": "128" }] }
                        }
                    },
                    "dtype": { "type": "DT_FLOAT" }
                }
            },
            {
                "name": "StatefulPartitionedCall/model/conv2d_51/Conv2D_weights",
                "op": "Const",
                "attr": {
                    "value": {
                        "tensor": {
                            "dtype": "DT_FLOAT",
                            "tensorShape": {
                                "dim": [
                                    { "size": "1" },
                                    { "size": "1" },
                                    { "size": "384" },
                                    { "size": "256" }
                                ]
                            }
                        }
                    },
                    "dtype": { "type": "DT_FLOAT" }
                }
            },
            {
                "name": "StatefulPartitionedCall/model/conv2d_51/Conv2D_bn_offset",
                "op": "Const",
                "attr": {
                    "dtype": { "type": "DT_FLOAT" },
                    "value": {
                        "tensor": {
                            "dtype": "DT_FLOAT",
                            "tensorShape": { "dim": [{ "size": "256" }] }
                        }
                    }
                }
            },
            {
                "name": "StatefulPartitionedCall/model/conv2d_68/Conv2D_weights",
                "op": "Const",
                "attr": {
                    "value": {
                        "tensor": {
                            "dtype": "DT_FLOAT",
                            "tensorShape": {
                                "dim": [
                                    { "size": "3" },
                                    { "size": "3" },
                                    { "size": "256" },
                                    { "size": "64" }
                                ]
                            }
                        }
                    },
                    "dtype": { "type": "DT_FLOAT" }
                }
            },
            {
                "name": "StatefulPartitionedCall/model/conv2d_68/Conv2D_bn_offset",
                "op": "Const",
                "attr": {
                    "value": {
                        "tensor": {
                            "dtype": "DT_FLOAT",
                            "tensorShape": { "dim": [{ "size": "64" }] }
                        }
                    },
                    "dtype": { "type": "DT_FLOAT" }
                }
            },
            {
                "name": "StatefulPartitionedCall/model/depthwise_conv2d_3/depthwise_weights",
                "op": "Const",
                "attr": {
                    "dtype": { "type": "DT_FLOAT" },
                    "value": {
                        "tensor": {
                            "dtype": "DT_FLOAT",
                            "tensorShape": {
                                "dim": [
                                    { "size": "3" },
                                    { "size": "3" },
                                    { "size": "256" },
                                    { "size": "1" }
                                ]
                            }
                        }
                    }
                }
            },
            {
                "name": "StatefulPartitionedCall/model/depthwise_conv2d_3/depthwise_bn_offset",
                "op": "Const",
                "attr": {
                    "dtype": { "type": "DT_FLOAT" },
                    "value": {
                        "tensor": {
                            "dtype": "DT_FLOAT",
                            "tensorShape": { "dim": [{ "size": "256" }] }
                        }
                    }
                }
            },
            {
                "name": "StatefulPartitionedCall/model/conv2d_52/Conv2D_weights",
                "op": "Const",
                "attr": {
                    "dtype": { "type": "DT_FLOAT" },
                    "value": {
                        "tensor": {
                            "dtype": "DT_FLOAT",
                            "tensorShape": {
                                "dim": [
                                    { "size": "3" },
                                    { "size": "3" },
                                    { "size": "256" },
                                    { "size": "256" }
                                ]
                            }
                        }
                    }
                }
            },
            {
                "name": "StatefulPartitionedCall/model/conv2d_52/Conv2D_bn_offset",
                "op": "Const",
                "attr": {
                    "dtype": { "type": "DT_FLOAT" },
                    "value": {
                        "tensor": {
                            "dtype": "DT_FLOAT",
                            "tensorShape": { "dim": [{ "size": "256" }] }
                        }
                    }
                }
            },
            {
                "name": "StatefulPartitionedCall/model/conv2d_71/Conv2D_weights",
                "op": "Const",
                "attr": {
                    "value": {
                        "tensor": {
                            "dtype": "DT_FLOAT",
                            "tensorShape": {
                                "dim": [
                                    { "size": "1" },
                                    { "size": "1" },
                                    { "size": "256" },
                                    { "size": "128" }
                                ]
                            }
                        }
                    },
                    "dtype": { "type": "DT_FLOAT" }
                }
            },
            {
                "name": "StatefulPartitionedCall/model/conv2d_71/Conv2D_bn_offset",
                "op": "Const",
                "attr": {
                    "value": {
                        "tensor": {
                            "dtype": "DT_FLOAT",
                            "tensorShape": { "dim": [{ "size": "128" }] }
                        }
                    },
                    "dtype": { "type": "DT_FLOAT" }
                }
            },
            {
                "name": "StatefulPartitionedCall/model/conv2d_69/Conv2D_weights",
                "op": "Const",
                "attr": {
                    "dtype": { "type": "DT_FLOAT" },
                    "value": {
                        "tensor": {
                            "dtype": "DT_FLOAT",
                            "tensorShape": {
                                "dim": [
                                    { "size": "3" },
                                    { "size": "3" },
                                    { "size": "64" },
                                    { "size": "64" }
                                ]
                            }
                        }
                    }
                }
            },
            {
                "name": "StatefulPartitionedCall/model/conv2d_69/Conv2D_bn_offset",
                "op": "Const",
                "attr": {
                    "value": {
                        "tensor": {
                            "dtype": "DT_FLOAT",
                            "tensorShape": { "dim": [{ "size": "64" }] }
                        }
                    },
                    "dtype": { "type": "DT_FLOAT" }
                }
            },
            {
                "name": "StatefulPartitionedCall/model/conv2d_53/Conv2D_weights",
                "op": "Const",
                "attr": {
                    "value": {
                        "tensor": {
                            "dtype": "DT_FLOAT",
                            "tensorShape": {
                                "dim": [
                                    { "size": "1" },
                                    { "size": "1" },
                                    { "size": "768" },
                                    { "size": "512" }
                                ]
                            }
                        }
                    },
                    "dtype": { "type": "DT_FLOAT" }
                }
            },
            {
                "name": "StatefulPartitionedCall/model/conv2d_53/Conv2D_bn_offset",
                "op": "Const",
                "attr": {
                    "value": {
                        "tensor": {
                            "dtype": "DT_FLOAT",
                            "tensorShape": { "dim": [{ "size": "512" }] }
                        }
                    },
                    "dtype": { "type": "DT_FLOAT" }
                }
            },
            {
                "name": "StatefulPartitionedCall/model/depthwise_conv2d_4/depthwise_weights",
                "op": "Const",
                "attr": {
                    "dtype": { "type": "DT_FLOAT" },
                    "value": {
                        "tensor": {
                            "dtype": "DT_FLOAT",
                            "tensorShape": {
                                "dim": [
                                    { "size": "3" },
                                    { "size": "3" },
                                    { "size": "128" },
                                    { "size": "1" }
                                ]
                            }
                        }
                    }
                }
            },
            {
                "name": "StatefulPartitionedCall/model/depthwise_conv2d_4/depthwise_bn_offset",
                "op": "Const",
                "attr": {
                    "value": {
                        "tensor": {
                            "dtype": "DT_FLOAT",
                            "tensorShape": { "dim": [{ "size": "128" }] }
                        }
                    },
                    "dtype": { "type": "DT_FLOAT" }
                }
            },
            {
                "name": "StatefulPartitionedCall/model/conv2d_54/Conv2D_weights",
                "op": "Const",
                "attr": {
                    "dtype": { "type": "DT_FLOAT" },
                    "value": {
                        "tensor": {
                            "dtype": "DT_FLOAT",
                            "tensorShape": {
                                "dim": [
                                    { "size": "1" },
                                    { "size": "1" },
…
                    }
                },
                {
                    "name": "StatefulPartitionedCall/model/conv2d_24/Conv2D_weights",
                    "shape": [3, 3, 128, 128],
                    "dtype": "float32",
                    "quantization": {
                        "dtype": "uint8",
                        "min": -0.888835724662332,
                        "scale": 0.0070542517830343805,
                        "original_dtype": "float32"
                    }
                },
                {
                    "name": "StatefulPartitionedCall/model/conv2d_24/Conv2D_bn_offset",
                    "shape": [128],
                    "dtype": "float32",
                    "quantization": {
                        "dtype": "uint8",
                        "min": -2.7176216256384755,
                        "scale": 0.02690714480830174,
                        "original_dtype": "float32"
                    }
                },
                {
                    "name": "StatefulPartitionedCall/model/conv2d_25/Conv2D_weights",
                    "shape": [3, 3, 128, 128],
                    "dtype": "float32",
                    "quantization": {
                        "dtype": "uint8",
                        "min": -0.6149045401928471,
                        "scale": 0.005969946992163564,
                        "original_dtype": "float32"
                    }
                },
                {
                    "name": "StatefulPartitionedCall/model/conv2d_77/Conv2D_bn_offset",
                    "shape": [128],
                    "dtype": "float32",
                    "quantization": {
                        "dtype": "uint8",
                        "min": -1.8826816268995696,
                        "scale": 0.012468090244368011,
                        "original_dtype": "float32"
                    }
                },
                {
                    "name": "StatefulPartitionedCall/model/conv2d_25/Conv2D_bn_offset",
                    "shape": [128],
                    "dtype": "float32",
                    "quantization": {
                        "dtype": "uint8",
                        "min": -1.8290364901224772,
                        "scale": 0.01101829210917155,
                        "original_dtype": "float32"
                    }
                },
                {
                    "name": "StatefulPartitionedCall/model/conv2d_26/Conv2D_weights",
                    "shape": [3, 3, 128, 128],
                    "dtype": "float32",
                    "quantization": {
                        "dtype": "uint8",
                        "min": -0.33960180154033737,
                        "scale": 0.0030053256773481182,
                        "original_dtype": "float32"
                    }
                },
                {
                    "name": "StatefulPartitionedCall/model/conv2d_26/Conv2D_bn_offset",
                    "shape": [128],
                    "dtype": "float32",
                    "quantization": {
                        "dtype": "uint8",
                        "min": -1.9248432795206705,
                        "scale": 0.018508108456929524,
                        "original_dtype": "float32"
                    }
                },
                {
                    "name": "StatefulPartitionedCall/model/conv2d_27/Conv2D_weights",
                    "shape": [3, 3, 128, 128],
                    "dtype": "float32",
                    "quantization": {
                        "dtype": "uint8",
                        "min": -0.8654488037614261,
                        "scale": 0.007036169136271757,
                        "original_dtype": "float32"
                    }
                },
                {
                    "name": "StatefulPartitionedCall/model/conv2d_27/Conv2D_bn_offset",
                    "shape": [128],
                    "dtype": "float32",
                    "quantization": {
                        "dtype": "uint8",
                        "min": -1.5155617957021676,
                        "scale": 0.013531801747340783,
                        "original_dtype": "float32"
                    }
                },
                {
                    "name": "StatefulPartitionedCall/model/conv2d_29/Conv2D_weights",
                    "shape": [1, 1, 256, 256],
                    "dtype": "float32",
                    "quantization": {
                        "dtype": "uint8",
                        "min": -0.6145681694442151,
                        "scale": 0.005037444011837829,
                        "original_dtype": "float32"
                    }
                },
                {
                    "name": "StatefulPartitionedCall/model/conv2d_29/Conv2D_bn_offset",
                    "shape": [256],
                    "dtype": "float32",
                    "quantization": {
                        "dtype": "uint8",
                        "min": -1.6059280283310835,
                        "scale": 0.014599345712100758,
                        "original_dtype": "float32"
                    }
                },
                {
                    "name": "StatefulPartitionedCall/model/conv2d_30/Conv2D_weights",
                    "shape": [1, 1, 768, 512],
                    "dtype": "float32",
                    "quantization": {
                        "dtype": "uint8",
                        "min": -0.7023144301246195,
                        "scale": 0.0065029113900427725,
                        "original_dtype": "float32"
                    }
                },
                {
                    "name": "StatefulPartitionedCall/model/conv2d_30/Conv2D_bn_offset",
                    "shape": [512],
                    "dtype": "float32",
                    "quantization": {
                        "dtype": "uint8",
                        "min": -1.405534901338465,
                        "scale": 0.01464098855560901,
                        "original_dtype": "float32"
                    }
                },
                {
                    "name": "StatefulPartitionedCall/model/conv2d_31/Conv2D_weights",
                    "shape": [1, 1, 512, 256],
                    "dtype": "float32",
                    "quantization": {
                        "dtype": "uint8",
                        "min": -1.0853968854043998,
                        "scale": 0.007333762739218918,
                        "original_dtype": "float32"
                    }
                },
                {
                    "name": "StatefulPartitionedCall/model/conv2d_75/Conv2D_weights",
                    "shape": [3, 3, 64, 64],
                    "dtype": "float32",
                    "quantization": {
                        "dtype": "uint8",
                        "min": -2.350579375846713,
                        "scale": 0.02282115898880304,
                        "original_dtype": "float32"
                    }
                },
                {
                    "name": "StatefulPartitionedCall/model/conv2d_31/Conv2D_bn_offset",
                    "shape": [256],
                    "dtype": "float32",
                    "quantization": {
                        "dtype": "uint8",
                        "min": 0.5807403922080994,
                        "scale": 0.015916727337182735,
                        "original_dtype": "float32"
                    }
                },
                {
                    "name": "StatefulPartitionedCall/model/conv2d_32/Conv2D_weights",
                    "shape": [1, 1, 1024, 512],
                    "dtype": "float32",
                    "quantization": {
                        "dtype": "uint8",
                        "min": -1.0837560681735767,
                        "scale": 0.006528651013093836,
                        "original_dtype": "float32"
                    }
                },
                {
                    "name": "StatefulPartitionedCall/model/conv2d_32/Conv2D_bn_offset",
                    "shape": [512],
                    "dtype": "float32",
                    "quantization": {
                        "dtype": "uint8",
                        "min": -9.076267317229627,
                        "scale": 0.0810381010466931,
                        "original_dtype": "float32"
                    }
                },
                {
                    "name": "StatefulPartitionedCall/model/conv2d_33/Conv2D_weights",
                    "shape": [1, 1, 512, 512],
                    "dtype": "float32",
                    "quantization": {
                        "dtype": "uint8",
                        "min": -2.5008061577292047,
                        "scale": 0.019847667918485752,
                        "original_dtype": "float32"
                    }
                },
                {
                    "name": "StatefulPartitionedCall/model/conv2d_75/Conv2D_bn_offset",
                    "shape": [64],
                    "dtype": "float32",
                    "quantization": {
                        "dtype": "uint8",
                        "min": -0.3485921364204556,
                        "scale": 0.012449719157873415,
                        "original_dtype": "float32"
                    }
                },
                {
                    "name": "StatefulPartitionedCall/model/conv2d_33/Conv2D_bn_offset",
                    "shape": [512],
                    "dtype": "float32",
                    "quantization": {
                        "dtype": "uint8",
                        "min": -7.025579277674357,
                        "scale": 0.0375699426613602,
                        "original_dtype": "float32"
                    }
                },
                {
                    "name": "StatefulPartitionedCall/model/conv2d_34/Conv2D_weights",
                    "shape": [1, 1, 256, 512],
                    "dtype": "float32",
                    "quantization": {
                        "dtype": "uint8",
                        "min": -0.7099705406263763,
                        "scale": 0.006282925138286516,
                        "original_dtype": "float32"
                    }
                },
                {
                    "name": "StatefulPartitionedCall/model/conv2d_34/Conv2D_bn_offset",
                    "shape": [512],
                    "dtype": "float32",
                    "quantization": {
                        "dtype": "uint8",
                        "min": -7.799350618848614,
                        "scale": 0.06289798886168237,
                        "original_dtype": "float32"
                    }
                },
                {
                    "name": "StatefulPartitionedCall/model/depthwise_conv2d/depthwise_weights",
                    "shape": [3, 3, 256, 1],
                    "dtype": "float32",
                    "quantization": {
                        "dtype": "uint8",
                        "min": -1.13383429330938,
                        "scale": 0.009218164986255122,
                        "original_dtype": "float32"
                    }
                },
                {
                    "name": "StatefulPartitionedCall/model/depthwise_conv2d/depthwise_bn_offset",
                    "shape": [256],
                    "dtype": "float32",
                    "quantization": {
                        "dtype": "uint8",
                        "min": -0.2748045322941799,
                        "scale": 0.010569405088237688,
                        "original_dtype": "float32"
                    }
                },
                {
                    "name": "StatefulPartitionedCall/model/conv2d_35/Conv2D_weights",
                    "shape": [1, 1, 256, 256],
                    "dtype": "float32",
                    "quantization": {
                        "dtype": "uint8",
                        "min": -0.8290850059658873,
                        "scale": 0.006328893175312117,
                        "original_dtype": "float32"
                    }
                },
                {
                    "name": "StatefulPartitionedCall/model/conv2d_35/Conv2D_bn_offset",
                    "shape": [256],
                    "dtype": "float32",
                    "quantization": {
                        "dtype": "uint8",
                        "min": -0.4817820600434846,
                        "scale": 0.003949033279044956,
                        "original_dtype": "float32"
                    }
                },
                {
                    "name": "StatefulPartitionedCall/model/conv2d_36/Conv2D_weights",
                    "shape": [1, 1, 256, 512],
                    "dtype": "float32",
                    "quantization": {
                        "dtype": "uint8",
                        "min": -0.8786322390331941,
                        "scale": 0.00552598892473707,
                        "original_dtype": "float32"
                    }
                },
                {
                    "name": "StatefulPartitionedCall/model/conv2d_36/Conv2D_bn_offset",
                    "shape": [512],
                    "dtype": "float32",
                    "quantization": {
                        "dtype": "uint8",
                        "min": -2.3295156955718994,
                        "scale": 0.008894888676849066,
                        "original_dtype": "float32"
                    }
                },
                {
                    "name": "StatefulPartitionedCall/model/conv2d_37/Conv2D_weights",
                    "shape": [1, 1, 512, 256],
                    "dtype": "float32",
                    "quantization": {
                        "dtype": "uint8",
                        "min": -1.20502544594746,
                        "scale": 0.007215721233218324,
                        "original_dtype": "float32"
                    }
                },
                {
                    "name": "StatefulPartitionedCall/model/conv2d_37/Conv2D_bn_offset",
                    "shape": [256],
                    "dtype": "float32",
                    "quantization": {
                        "dtype": "uint8",
                        "min": -0.5267395776860854,
                        "scale": 0.0034653919584610882,
                        "original_dtype": "float32"
                    }
                },
                {
                    "name": "StatefulPartitionedCall/model/conv2d_38/Conv2D_weights",
                    "shape": [1, 1, 512, 512],
                    "dtype": "float32",
                    "quantization": {
                        "dtype": "uint8",
                        "min": -0.4910368928722307,
                        "scale": 0.003866432227340399,
                        "original_dtype": "float32"
                    }
                },
                {
                    "name": "StatefulPartitionedCall/model/conv2d_38/Conv2D_bn_offset",
                    "shape": [512],
                    "dtype": "float32",
                    "quantization": {
                        "dtype": "uint8",
                        "min": -2.8402434447232414,
                        "scale": 0.016046573134029612,
                        "original_dtype": "float32"
                    }
                },
                {
                    "name": "StatefulPartitionedCall/model/conv2d_39/Conv2D_weights",
                    "shape": [1, 1, 768, 256],
                    "dtype": "float32",
                    "quantization": {
                        "dtype": "uint8",
                        "min": -1.0341355709468616,
                        "scale": 0.00694050718756283,
                        "original_dtype": "float32"
                    }
                },
                {
                    "name": "StatefulPartitionedCall/model/depthwise_conv2d_6/depthwise_weights",
                    "shape": [3, 3, 128, 1],
                    "dtype": "float32",
                    "quantization": {
                        "dtype": "uint8",
                        "min": -3.373856585633521,
                        "scale": 0.02859200496299594,
                        "original_dtype": "float32"
                    }
                },
                {
                    "name": "StatefulPartitionedCall/model/conv2d_39/Conv2D_bn_offset",
                    "shape": [256],
                    "dtype": "float32",
                    "quantization": {
                        "dtype": "uint8",
                        "min": -3.9039067609637392,
                        "scale": 0.021568545640683643,
                        "original_dtype": "float32"
                    }
                },
                {
                    "name": "StatefulPartitionedCall/model/conv2d_40/Conv2D_weights",
                    "shape": [3, 3, 128, 64],
                    "dtype": "float32",
                    "quantization": {
                        "dtype": "uint8",
                        "min": -0.8425252935465644,
                        "scale": 0.0075903179598789585,
                        "original_dtype": "float32"
                    }
                },
                {
                    "name": "StatefulPartitionedCall/model/conv2d_40/Conv2D_bn_offset",
                    "shape": [64],
                    "dtype": "float32",
                    "quantization": {
                        "dtype": "uint8",
                        "min": -2.5783357433244296,
                        "scale": 0.020301856246649052,
                        "original_dtype": "float32"
                    }
                },
                {
                    "name": "StatefulPartitionedCall/model/conv2d_41/Conv2D_weights",
                    "shape": [3, 3, 64, 128],
                    "dtype": "float32",
                    "quantization": {
                        "dtype": "uint8",
                        "min": -0.957052584956674,
                        "scale": 0.007656420679653392,
                        "original_dtype": "float32"
                    }
                },
                {
                    "name": "StatefulPartitionedCall/model/depthwise_conv2d_6/depthwise_bn_offset",
                    "shape": [128],
                    "dtype": "float32",
                    "quantization": {
                        "dtype": "uint8",
                        "min": -0.6828581417308134,
                        "scale": 0.010669658464543959,
                        "original_dtype": "float32"
                    }
                },
                {
                    "name": "StatefulPartitionedCall/model/conv2d_41/Conv2D_bn_offset",
                    "shape": [128],
                    "dtype": "float32",
                    "quantization": {
                        "dtype": "uint8",
                        "min": -2.1208958270503024,
                        "scale": 0.015480991438323375,
                        "original_dtype": "float32"
                    }
                },
                {
                    "name": "StatefulPartitionedCall/model/conv2d_42/Conv2D_weights",
                    "shape": [1, 1, 384, 256],
                    "dtype": "float32",
                    "quantization": {
                        "dtype": "uint8",
                        "min": -0.6250106671277214,
                        "scale": 0.005787135806738161,
                        "original_dtype": "float32"
                    }
                },
                {
                    "name": "StatefulPartitionedCall/model/conv2d_42/Conv2D_bn_offset",
                    "shape": [256],
                    "dtype": "float32",
                    "quantization": {
                        "dtype": "uint8",
                        "min": -2.6272464111739513,
                        "scale": 0.016734053574356377,
                        "original_dtype": "float32"
                    }
                },
                {
                    "name": "StatefulPartitionedCall/model/conv2d_43/Conv2D_weights",
                    "shape": [1, 1, 512, 128],
                    "dtype": "float32",
                    "quantization": {
                        "dtype": "uint8",
                        "min": -1.1462091838612276,
                        "scale": 0.009096898284612917,
                        "original_dtype": "float32"
                    }
                },
                {
                    "name": "StatefulPartitionedCall/model/conv2d_43/Conv2D_bn_offset",
                    "shape": [128],
                    "dtype": "float32",
                    "quantization": {
                        "dtype": "uint8",
                        "min": -3.686178817468531,
                        "scale": 0.021063878956963034,
                        "original_dtype": "float32"
                    }
                },
                {
                    "name": "StatefulPartitionedCall/model/conv2d_44/Conv2D_weights",
                    "shape": [3, 3, 64, 32],
                    "dtype": "float32",
                    "quantization": {
                        "dtype": "uint8",
                        "min": -1.6591180259106206,
                        "scale": 0.011210256931828517,
                        "original_dtype": "float32"
                    }
                },
                {
                    "name": "StatefulPartitionedCall/model/conv2d_44/Conv2D_bn_offset",
                    "shape": [32],
                    "dtype": "float32",
                    "quantization": {
                        "dtype": "uint8",
                        "min": -2.6864518848119996,
                        "scale": 0.023773910485061944,
                        "original_dtype": "float32"
                    }
                },
                {
                    "name": "StatefulPartitionedCall/model/conv2d_45/Conv2D_weights",
                    "shape": [3, 3, 32, 64],
                    "dtype": "float32",
                    "quantization": {
                        "dtype": "uint8",
                        "min": -1.0653085147633272,
                        "scale": 0.009344811533011642,
                        "original_dtype": "float32"
                    }
                },
                {
                    "name": "StatefulPartitionedCall/model/conv2d_78/Conv2D_weights",
                    "shape": [1, 1, 128, 128],
                    "dtype": "float32",
                    "quantization": {
                        "dtype": "uint8",
                        "min": -4.286450659994985,
                        "scale": 0.028768125234865674,
                        "original_dtype": "float32"
                    }
                },
                {
                    "name": "StatefulPartitionedCall/model/conv2d_45/Conv2D_bn_offset",
                    "shape": [64],
                    "dtype": "float32",
                    "quantization": {
                        "dtype": "uint8",
                        "min": -3.601818993512322,
                        "scale": 0.023088583291745655,
                        "original_dtype": "float32"
                    }
                },
                {
                    "name": "StatefulPartitionedCall/model/conv2d_46/Conv2D_weights",
                    "shape": [1, 1, 192, 128],
                    "dtype": "float32",
                    "quantization": {
                        "dtype": "uint8",
                        "min": -1.447205625328363,
                        "scale": 0.009336810485989439,
                        "original_dtype": "float32"
                    }
                },
                {
                    "name": "StatefulPartitionedCall/model/conv2d_46/Conv2D_bn_offset",
                    "shape": [128],
                    "dtype": "float32",
                    "quantization": {
                        "dtype": "uint8",
                        "min": -2.6301956176757812,
                        "scale": 0.01865386962890625,
                        "original_dtype": "float32"
                    }
                },
                {
                    "name": "StatefulPartitionedCall/model/conv2d_62/Conv2D_weights",
                    "shape": [3, 3, 128, 64],
                    "dtype": "float32",
                    "quantization": {
                        "dtype": "uint8",
                        "min": -1.834372367110907,
                        "scale": 0.01433103411805396,
                        "original_dtype": "float32"
                    }
                },
                {
                    "name": "StatefulPartitionedCall/model/conv2d_78/Conv2D_bn_offset",
                    "shape": [128],
                    "dtype": "float32",
                    "quantization": {
                        "dtype": "uint8",
                        "min": -1.5161944333244772,
                        "scale": 0.06317476805518656,
                        "original_dtype": "float32"
                    }
                },
                {
                    "name": "StatefulPartitionedCall/model/conv2d_62/Conv2D_bn_offset",
                    "shape": [64],
                    "dtype": "float32",
                    "quantization": {
                        "dtype": "uint8",
                        "min": -3.3607399884392235,
                        "scale": 0.024894370284734988,
                        "original_dtype": "float32"
                    }
                },
                {
                    "name": "StatefulPartitionedCall/model/depthwise_conv2d_1/depthwise_weights",
                    "shape": [3, 3, 128, 1],
                    "dtype": "float32",
                    "quantization": {
                        "dtype": "uint8",
                        "min": -4.995735996844722,
                        "scale": 0.02657306381300384,
                        "original_dtype": "float32"
                    }
                },
                {
                    "name": "StatefulPartitionedCall/model/depthwise_conv2d_1/depthwise_bn_offset",
                    "shape": [128],
                    "dtype": "float32",
                    "quantization": {
                        "dtype": "uint8",
                        "min": -0.5246222575505575,
                        "scale": 0.015430066398545807,
                        "original_dtype": "float32"
                    }
                },
                {
                    "name": "StatefulPartitionedCall/model/conv2d_47/Conv2D_weights",
                    "shape": [3, 3, 128, 128],
                    "dtype": "float32",
                    "quantization": {
                        "dtype": "uint8",
                        "min": -0.8987445158116957,
                        "scale": 0.007132892982632506,
                        "original_dtype": "float32"
                    }
                },
                {
                    "name": "StatefulPartitionedCall/model/conv2d_47/Conv2D_bn_offset",
                    "shape": [128],
                    "dtype": "float32",
                    "quantization": {
                        "dtype": "uint8",
                        "min": -3.2163906658397003,
                        "scale": 0.020228872112199373,
                        "original_dtype": "float32"
                    }
                },
                {
                    "name": "StatefulPartitionedCall/model/conv2d_65/Conv2D_weights",
                    "shape": [1, 1, 128, 128],
                    "dtype": "float32",
                    "quantization": {
                        "dtype": "uint8",
                        "min": -2.740800460179647,
                        "scale": 0.01612235564811557,
                        "original_dtype": "float32"
                    }
                },
                {
                    "name": "StatefulPartitionedCall/model/conv2d_65/Conv2D_bn_offset",
                    "shape": [128],
                    "dtype": "float32",
                    "quantization": {
                        "dtype": "uint8",
                        "min": -4.998515746172737,
                        "scale": 0.04628255320530312,
                        "original_dtype": "float32"
                    }
                },
                {
                    "name": "StatefulPartitionedCall/model/conv2d_63/Conv2D_weights",
                    "shape": [3, 3, 64, 64],
                    "dtype": "float32",
                    "quantization": {
                        "dtype": "uint8",
                        "min": -5.054712357240565,
                        "scale": 0.03918381672279508,
                        "original_dtype": "float32"
                    }
                },
                {
                    "name": "StatefulPartitionedCall/model/conv2d_63/Conv2D_bn_offset",
                    "shape": [64],
                    "dtype": "float32",
                    "quantization": {
                        "dtype": "uint8",
                        "min": -2.7464195560006535,
                        "scale": 0.036618927413342044,
                        "original_dtype": "float32"
                    }
                },
                {
                    "name": "StatefulPartitionedCall/model/conv2d_48/Conv2D_weights",
                    "shape": [1, 1, 384, 256],
                    "dtype": "float32",
                    "quantization": {
                        "dtype": "uint8",
                        "min": -1.429351855726803,
                        "scale": 0.013612874816445743,
                        "original_dtype": "float32"
                    }
                },
                {
                    "name": "StatefulPartitionedCall/model/conv2d_48/Conv2D_bn_offset",
                    "shape": [256],
                    "dtype": "float32",
                    "quantization": {
                        "dtype": "uint8",
                        "min": -2.4482474981569777,
                        "scale": 0.01530154686348111,
                        "original_dtype": "float32"
                    }
                },
                {
                    "name": "StatefulPartitionedCall/model/depthwise_conv2d_2/depthwise_weights",
                    "shape": [3, 3, 128, 1],
                    "dtype": "float32",
                    "quantization": {
                        "dtype": "uint8",
                        "min": -11.418915460623946,
                        "scale": 0.05652928445853439,
                        "original_dtype": "float32"
                    }
                },
                {
                    "name": "StatefulPartitionedCall/model/depthwise_conv2d_2/depthwise_bn_offset",
                    "shape": [128],
                    "dtype": "float32",
                    "quantization": {
                        "dtype": "uint8",
                        "min": -3.0752114669949404,
                        "scale": 0.02165641878165451,
                        "original_dtype": "float32"
                    }
                },
                {
                    "name": "StatefulPartitionedCall/model/conv2d_49/Conv2D_weights",
                    "shape": [3, 3, 128, 64],
                    "dtype": "float32",
                    "quantization": {
                        "dtype": "uint8",
                        "min": -0.8547357437657375,
                        "scale": 0.006378624953475653,
                        "original_dtype": "float32"
                    }
                },
                {
                    "name": "StatefulPartitionedCall/model/conv2d_49/Conv2D_bn_offset",
                    "shape": [64],
                    "dtype": "float32",
                    "quantization": {
                        "dtype": "uint8",
                        "min": -2.666408530403586,
                        "scale": 0.018910698797188555,
                        "original_dtype": "float32"
                    }
                },
                {
                    "name": "StatefulPartitionedCall/model/conv2d_66/Conv2D_weights",
                    "shape": [1, 1, 128, 128],
                    "dtype": "float32",
                    "quantization": {
                        "dtype": "uint8",
                        "min": -6.190963049495922,
                        "scale": 0.041830831415512984,
                        "original_dtype": "float32"
                    }
                },
                {
                    "name": "StatefulPartitionedCall/model/conv2d_66/Conv2D_bn_offset",
                    "shape": [128],
                    "dtype": "float32",
                    "quantization": {
                        "dtype": "uint8",
                        "min": -5.8290585555282295,
                        "scale": 0.11896037868424958,
                        "original_dtype": "float32"
                    }
                },
                {
                    "name": "StatefulPartitionedCall/model/conv2d_50/Conv2D_weights",
                    "shape": [3, 3, 64, 128],
                    "dtype": "float32",
                    "quantization": {
                        "dtype": "uint8",
                        "min": -2.4109819748822376,
                        "scale": 0.01697874630198759,
                        "original_dtype": "float32"
                    }
                },
                {
                    "name": "StatefulPartitionedCall/model/conv2d_50/Conv2D_bn_offset",
                    "shape": [128],
                    "dtype": "float32",
                    "quantization": {
                        "dtype": "uint8",
                        "min": -3.991330311345119,
                        "scale": 0.030468170315611595,
                        "original_dtype": "float32"
                    }
                },
                {
                    "name": "StatefulPartitionedCall/model/conv2d_51/Conv2D_weights",
                    "shape": [1, 1, 384, 256],
                    "dtype": "float32",
                    "quantization": {
                        "dtype": "uint8",
                        "min": -1.6797486080842858,
                        "scale": 0.010767619282591576,
                        "original_dtype": "float32"
                    }
                },
                {
                    "name": "StatefulPartitionedCall/model/conv2d_51/Conv2D_bn_offset",
                    "shape": [256],
                    "dtype": "float32",
                    "quantization": {
                        "dtype": "uint8",
                        "min": -2.7365209705689373,
                        "scale": 0.016584975579205682,
                        "original_dtype": "float32"
                    }
                },
                {
                    "name": "StatefulPartitionedCall/model/conv2d_68/Conv2D_weights",
                    "shape": [3, 3, 256, 64],
                    "dtype": "float32",
                    "quantization": {
                        "dtype": "uint8",
                        "min": -1.6731037053407407,
                        "scale": 0.010264439910065894,
                        "original_dtype": "float32"
                    }
                },
                {
                    "name": "StatefulPartitionedCall/model/conv2d_68/Conv2D_bn_offset",
                    "shape": [64],
                    "dtype": "float32",
                    "quantization": {
                        "dtype": "uint8",
                        "min": -3.3104990351433847,
                        "scale": 0.02192383466982374,
                        "original_dtype": "float32"
                    }
                },
                {
                    "name": "StatefulPartitionedCall/model/depthwise_conv2d_3/depthwise_weights",
                    "shape": [3, 3, 256, 1],
                    "dtype": "float32",
                    "quantization": {
                        "dtype": "uint8",
                        "min": -2.6268957577499688,
                        "scale": 0.024550427642523073,
                        "original_dtype": "float32"
                    }
                },
                {
                    "name": "StatefulPartitionedCall/model/depthwise_conv2d_3/depthwise_bn_offset",
                    "shape": [256],
                    "dtype": "float32",
                    "quantization": {
                        "dtype": "uint8",
                        "min": -1.1438029532339058,
                        "scale": 0.020425052736319747,
                        "original_dtype": "float32"
                    }
                },
                {
                    "name": "StatefulPartitionedCall/model/conv2d_52/Conv2D_weights",
                    "shape": [3, 3, 256, 256],
                    "dtype": "float32",
                    "quantization": {
                        "dtype": "uint8",
                        "min": -0.37026014538372265,
                        "scale": 0.003247896012137918,
                        "original_dtype": "float32"
                    }
                },
                {
                    "name": "StatefulPartitionedCall/model/conv2d_52/Conv2D_bn_offset",
                    "shape": [256],
                    "dtype": "float32",
                    "quantization": {
                        "dtype": "uint8",
                        "min": -1.6861757016649435,
                        "scale": 0.008874608956131281,
                        "original_dtype": "float32"
                    }
                },
                {
                    "name": "StatefulPartitionedCall/model/conv2d_71/Conv2D_weights",
                    "shape": [1, 1, 256, 128],
                    "dtype": "float32",
                    "quantization": {
                        "dtype": "uint8",
                        "min": -1.8464476767708273,
                        "scale": 0.012912221515879911,
                        "original_dtype": "float32"
                    }
                },
                {
                    "name": "StatefulPartitionedCall/model/conv2d_71/Conv2D_bn_offset",
                    "shape": [128],
                    "dtype": "float32",
                    "quantization": {
                        "dtype": "uint8",
                        "min": -2.3630881992040895,
                        "scale": 0.022084936441159716,
                        "original_dtype": "float32"
                    }
                },
                {
                    "name": "StatefulPartitionedCall/model/conv2d_69/Conv2D_weights",
                    "shape": [3, 3, 64, 64],
                    "dtype": "float32",
                    "quantization": {
                        "dtype": "uint8",
                        "min": -3.033452771691715,
                        "scale": 0.03003418585833381,
                        "original_dtype": "float32"
                    }
                },
                {
                    "name": "StatefulPartitionedCall/model/conv2d_69/Conv2D_bn_offset",
                    "shape": [64],
                    "dtype": "float32",
                    "quantization": {
                        "dtype": "uint8",
                        "min": -1.447723193729625,
                        "scale": 0.03712110753152885,
                        "original_dtype": "float32"
                    }
                },
                {
                    "name": "StatefulPartitionedCall/model/conv2d_53/Conv2D_weights",
                    "shape": [1, 1, 768, 512],
                    "dtype": "float32",
                    "quantization": {
                        "dtype": "uint8",
                        "min": -0.9986952828425987,
                        "scale": 0.008253680023492551,
                        "original_dtype": "float32"
                    }
                },
                {
                    "name": "StatefulPartitionedCall/model/conv2d_53/Conv2D_bn_offset",
                    "shape": [512],
                    "dtype": "float32",
                    "quantization": {
                        "dtype": "uint8",
                        "min": -4.030286588388331,
                        "scale": 0.022023423980264103,
                        "original_dtype": "float32"
                    }
                },
                {
                    "name": "StatefulPartitionedCall/model/depthwise_conv2d_4/depthwise_weights",
                    "shape": [3, 3, 128, 1],
                    "dtype": "float32",
                    "quantization": {
                        "dtype": "uint8",
                        "min": -3.071301206887937,
                        "scale": 0.028177075292549883,
                        "original_dtype": "float32"
                    }
                },
                {
                    "name": "StatefulPartitionedCall/model/depthwise_conv2d_4/depthwise_bn_offset",
                    "shape": [128],
                    "dtype": "float32",
                    "quantization": {
                        "dtype": "uint8",
                        "min": -1.6000015782374963,
                        "scale": 0.020000019727968704,
                        "original_dtype": "float32"
                    }
                },
                {
                    "name": "StatefulPartitionedCall/model/conv2d_54/Conv2D_weights",
                    "shape": [1, 1, 256, 128],
                    "dtype": "float32",
                    "quantization": {
                        "dtype": "uint8",
                        "min": -0.39399449825286864,
                        "scale": 0.0032294631004333497,
                        "original_dtype": "float32"
                    }
                },
                {
                    "name": "StatefulPartitionedCall/model/conv2d_54/Conv2D_bn_offset",
                    "shape": [128],
                    "dtype": "float32",
                    "quantization": {
                        "dtype": "uint8",
                        "min": -1.2733938469606287,
                        "scale": 0.010883708093680588,
                        "original_dtype": "float32"
                    }
                },
                {
                    "name": "StatefulPartitionedCall/model/conv2d_59/Conv2D_weights",
                    "shape": [1, 1, 256, 128],
                    "dtype": "float32",
                    "quantization": {
                        "dtype": "uint8",
                        "min": -0.7484660347302755,
                        "scale": 0.006289630543951895,
                        "original_dtype": "float32"
                    }
                },
                {
                    "name": "StatefulPartitionedCall/model/conv2d_59/Conv2D_bn_offset",
                    "shape": [128],
                    "dtype": "float32",
                    "quantization": {
                        "dtype": "uint8",
                        "min": -0.5982518114295661,
                        "scale": 0.0036702565118378284,
                        "original_dtype": "float32"
                    }
                },
                {
                    "name": "StatefulPartitionedCall/model/conv2d_72/Conv2D_weights",
                    "shape": [1, 1, 128, 128],
                    "dtype": "float32",
                    "quantization": {
                        "dtype": "uint8",
                        "min": -4.722084314682904,
                        "scale": 0.032792252185297945,
                        "original_dtype": "float32"
                    }
                },
                {
                    "name": "StatefulPartitionedCall/model/conv2d_72/Conv2D_bn_offset",
                    "shape": [128],
                    "dtype": "float32",
                    "quantization": {
                        "dtype": "uint8",
                        "min": -0.411156218659644,
                        "scale": 0.102789054664911,
                        "original_dtype": "float32"
                    }
                },
                {
                    "name": "StatefulPartitionedCall/model/conv2d_55/Conv2D_weights",
                    "shape": [3, 3, 128, 128],
                    "dtype": "float32",
                    "quantization": {
                        "dtype": "uint8",
                        "min": -1.203304527787601,
                        "scale": 0.009782963640549603,
                        "original_dtype": "float32"
                    }
                },
                {
                    "name": "StatefulPartitionedCall/model/conv2d_55/Conv2D_bn_offset",
                    "shape": [128],
                    "dtype": "float32",
                    "quantization": {
                        "dtype": "uint8",
                        "min": -2.367657434239107,
                        "scale": 0.027214453267116172,
                        "original_dtype": "float32"
                    }
                },
                {
                    "name": "StatefulPartitionedCall/model/conv2d_56/Conv2D_weights",
                    "shape": [3, 3, 128, 128],
                    "dtype": "float32",
                    "quantization": {
                        "dtype": "uint8",
                        "min": -0.9018518737718171,
                        "scale": 0.006441799098370122,
                        "original_dtype": "float32"
                    }
                },
                {
                    "name": "StatefulPartitionedCall/model/conv2d_56/Conv2D_bn_offset",
                    "shape": [128],
                    "dtype": "float32",
                    "quantization": {
                        "dtype": "uint8",
                        "min": -1.812349508790409,
                        "scale": 0.009342007777270149,
                        "original_dtype": "float32"
                    }
                },
                {
                    "name": "StatefulPartitionedCall/model/conv2d_57/Conv2D_weights",
                    "shape": [3, 3, 128, 128],
                    "dtype": "float32",
                    "quantization": {
                        "dtype": "uint8",
                        "min": -0.7368319081325156,
                        "scale": 0.006698471892113779,
                        "original_dtype": "float32"
                    }
                },
                {
                    "name": "StatefulPartitionedCall/model/conv2d_57/Conv2D_bn_offset",
                    "shape": [128],
                    "dtype": "float32",
                    "quantization": {
                        "dtype": "uint8",
                        "min": -2.377543860323289,
                        "scale": 0.01177001911051133,
                        "original_dtype": "float32"
                    }
                },
                {
                    "name": "StatefulPartitionedCall/model/conv2d_58/Conv2D_weights",
                    "shape": [3, 3, 128, 128],
                    "dtype": "float32",
                    "quantization": {
                        "dtype": "uint8",
                        "min": -0.9818377186270321,
                        "scale": 0.009091089987287334,
                        "original_dtype": "float32"
                    }
                },
                {
                    "name": "StatefulPartitionedCall/model/conv2d_58/Conv2D_bn_offset",
                    "shape": [128],
                    "dtype": "float32",
                    "quantization": {
                        "dtype": "uint8",
                        "min": -1.5298502304974724,
                        "scale": 0.010623959934010226,
                        "original_dtype": "float32"
                    }
                },
                {
                    "name": "StatefulPartitionedCall/model/conv2d_60/Conv2D_weights",
                    "shape": [1, 1, 256, 256],
                    "dtype": "float32",
                    "quantization": {
                        "dtype": "uint8",
                        "min": -1.1535521979425467,
                        "scale": 0.007490598687938615,
                        "original_dtype": "float32"
                    }
                },
                {
                    "name": "StatefulPartitionedCall/model/conv2d_60/Conv2D_bn_offset",
                    "shape": [256],
                    "dtype": "float32",
                    "quantization": {
                        "dtype": "uint8",
                        "min": -1.1981202013352337,
                        "scale": 0.01032862242530374,
                        "original_dtype": "float32"
                    }
                },
                {
                    "name": "StatefulPartitionedCall/model/tf.expand_dims/ExpandDims",
                    "shape": [1, 2, 8400],
                    "dtype": "float32",
                    "quantization": {
                        "dtype": "uint8",
                        "min": 0.5,
                        "scale": 0.30980392156862746,
                        "original_dtype": "float32"
                    }
                },
                {
                    "name": "StatefulPartitionedCall/model/tf.compat.v1.transpose_10/transpose",
                    "shape": [1, 8400],
                    "dtype": "float32",
                    "quantization": {
                        "dtype": "uint8",
                        "min": 8.0,
                        "scale": 0.09411764705882353,
                        "original_dtype": "float32"
                    }
                }
            ]
        }
    ]
}
